{"modelTopology": {"keras_version": "2.1.4-tf", "backend": "tensorflow", "model_config": {"class_name": "Model", "config": {"name": "densenet121", "layers": [{"name": "input_1", "class_name": "InputLayer", "config": {"batch_input_shape": [null, 224, 224, 3], "dtype": "float32", "sparse": false, "name": "input_1"}, "inbound_nodes": []}, {"name": "zero_padding2d_1", "class_name": "ZeroPadding2D", "config": {"name": "zero_padding2d_1", "trainable": true, "dtype": "float32", "padding": [[3, 3], [3, 3]], "data_format": "channels_last"}, "inbound_nodes": [[["input_1", 0, 0, {}]]]}, {"name": "conv1/conv", "class_name": "Conv2D", "config": {"name": "conv1/conv", "trainable": true, "dtype": "float32", "filters": 64, "kernel_size": [7, 7], "strides": [2, 2], "padding": "valid", "data_format": "channels_last", "dilation_rate": [1, 1], "activation": "linear", "use_bias": false, "kernel_initializer": {"class_name": "VarianceScaling", "config": {"scale": 1.0, "mode": "fan_avg", "distribution": "uniform", "seed": null, "dtype": "float32"}}, "bias_initializer": {"class_name": "Zeros", "config": {"dtype": "float32"}}, "kernel_regularizer": null, "bias_regularizer": null, "activity_regularizer": null, "kernel_constraint": null, "bias_constraint": null}, "inbound_nodes": [[["zero_padding2d_1", 0, 0, {}]]]}, {"name": "conv1/bn", "class_name": "BatchNormalization", "config": {"name": "conv1/bn", "trainable": true, "dtype": "float32", "axis": [3], "momentum": 0.99, "epsilon": 1.001e-05, "center": true, "scale": true, "beta_initializer": {"class_name": "Zeros", "config": {"dtype": "float32"}}, "gamma_initializer": {"class_name": "Ones", "config": {"dtype": "float32"}}, "moving_mean_initializer": {"class_name": "Zeros", "config": {"dtype": "float32"}}, "moving_variance_initializer": {"class_name": "Ones", "config": {"dtype": "float32"}}, "beta_regularizer": null, "gamma_regularizer": null, "beta_constraint": null, "gamma_constraint": null}, "inbound_nodes": [[["conv1/conv", 0, 0, {}]]]}, {"name": "conv1/relu", "class_name": "Activation", "config": {"name": "conv1/relu", "trainable": true, "dtype": "float32", "activation": "relu"}, "inbound_nodes": [[["conv1/bn", 0, 0, {}]]]}, {"name": "zero_padding2d_2", "class_name": "ZeroPadding2D", "config": {"name": "zero_padding2d_2", "trainable": true, "dtype": "float32", "padding": [[1, 1], [1, 1]], "data_format": "channels_last"}, "inbound_nodes": [[["conv1/relu", 0, 0, {}]]]}, {"name": "pool1", "class_name": "MaxPooling2D", "config": {"name": "pool1", "trainable": true, "dtype": "float32", "pool_size": [3, 3], "padding": "valid", "strides": [2, 2], "data_format": "channels_last"}, "inbound_nodes": [[["zero_padding2d_2", 0, 0, {}]]]}, {"name": "conv2_block1_0_bn", "class_name": "BatchNormalization", "config": {"name": "conv2_block1_0_bn", "trainable": true, "dtype": "float32", "axis": [3], "momentum": 0.99, "epsilon": 1.001e-05, "center": true, "scale": true, "beta_initializer": {"class_name": "Zeros", "config": {"dtype": "float32"}}, "gamma_initializer": {"class_name": "Ones", "config": {"dtype": "float32"}}, "moving_mean_initializer": {"class_name": "Zeros", "config": {"dtype": "float32"}}, "moving_variance_initializer": {"class_name": "Ones", "config": {"dtype": "float32"}}, "beta_regularizer": null, "gamma_regularizer": null, "beta_constraint": null, "gamma_constraint": null}, "inbound_nodes": [[["pool1", 0, 0, {}]]]}, {"name": "conv2_block1_0_relu", "class_name": "Activation", "config": {"name": "conv2_block1_0_relu", "trainable": true, "dtype": "float32", "activation": "relu"}, "inbound_nodes": [[["conv2_block1_0_bn", 0, 0, {}]]]}, {"name": "conv2_block1_1_conv", "class_name": "Conv2D", "config": {"name": "conv2_block1_1_conv", "trainable": true, "dtype": "float32", "filters": 128, "kernel_size": [1, 1], "strides": [1, 1], "padding": "valid", "data_format": "channels_last", "dilation_rate": [1, 1], "activation": "linear", "use_bias": false, "kernel_initializer": {"class_name": "VarianceScaling", "config": {"scale": 1.0, "mode": "fan_avg", "distribution": "uniform", "seed": null, "dtype": "float32"}}, "bias_initializer": {"class_name": "Zeros", "config": {"dtype": "float32"}}, "kernel_regularizer": null, "bias_regularizer": null, "activity_regularizer": null, "kernel_constraint": null, "bias_constraint": null}, "inbound_nodes": [[["conv2_block1_0_relu", 0, 0, {}]]]}, {"name": "conv2_block1_1_bn", "class_name": "BatchNormalization", "config": {"name": "conv2_block1_1_bn", "trainable": true, "dtype": "float32", "axis": [3], "momentum": 0.99, "epsilon": 1.001e-05, "center": true, "scale": true, "beta_initializer": {"class_name": "Zeros", "config": {"dtype": "float32"}}, "gamma_initializer": {"class_name": "Ones", "config": {"dtype": "float32"}}, "moving_mean_initializer": {"class_name": "Zeros", "config": {"dtype": "float32"}}, "moving_variance_initializer": {"class_name": "Ones", "config": {"dtype": "float32"}}, "beta_regularizer": null, "gamma_regularizer": null, "beta_constraint": null, "gamma_constraint": null}, "inbound_nodes": [[["conv2_block1_1_conv", 0, 0, {}]]]}, {"name": "conv2_block1_1_relu", "class_name": "Activation", "config": {"name": "conv2_block1_1_relu", "trainable": true, "dtype": "float32", "activation": "relu"}, "inbound_nodes": [[["conv2_block1_1_bn", 0, 0, {}]]]}, {"name": "conv2_block1_2_conv", "class_name": "Conv2D", "config": {"name": "conv2_block1_2_conv", "trainable": true, "dtype": "float32", "filters": 32, "kernel_size": [3, 3], "strides": [1, 1], "padding": "same", "data_format": "channels_last", "dilation_rate": [1, 1], "activation": "linear", "use_bias": false, "kernel_initializer": {"class_name": "VarianceScaling", "config": {"scale": 1.0, "mode": "fan_avg", "distribution": "uniform", "seed": null, "dtype": "float32"}}, "bias_initializer": {"class_name": "Zeros", "config": {"dtype": "float32"}}, "kernel_regularizer": null, "bias_regularizer": null, "activity_regularizer": null, "kernel_constraint": null, "bias_constraint": null}, "inbound_nodes": [[["conv2_block1_1_relu", 0, 0, {}]]]}, {"name": "conv2_block1_concat", "class_name": "Concatenate", "config": {"name": "conv2_block1_concat", "trainable": true, "dtype": "float32", "axis": 3}, "inbound_nodes": [[["pool1", 0, 0, {}], ["conv2_block1_2_conv", 0, 0, {}]]]}, {"name": "conv2_block2_0_bn", "class_name": "BatchNormalization", "config": {"name": "conv2_block2_0_bn", "trainable": true, "dtype": "float32", "axis": [3], "momentum": 0.99, "epsilon": 1.001e-05, "center": true, "scale": true, "beta_initializer": {"class_name": "Zeros", "config": {"dtype": "float32"}}, "gamma_initializer": {"class_name": "Ones", "config": {"dtype": "float32"}}, "moving_mean_initializer": {"class_name": "Zeros", "config": {"dtype": "float32"}}, "moving_variance_initializer": {"class_name": "Ones", "config": {"dtype": "float32"}}, "beta_regularizer": null, "gamma_regularizer": null, "beta_constraint": null, "gamma_constraint": null}, "inbound_nodes": [[["conv2_block1_concat", 0, 0, {}]]]}, {"name": "conv2_block2_0_relu", "class_name": "Activation", "config": {"name": "conv2_block2_0_relu", "trainable": true, "dtype": "float32", "activation": "relu"}, "inbound_nodes": [[["conv2_block2_0_bn", 0, 0, {}]]]}, {"name": "conv2_block2_1_conv", "class_name": "Conv2D", "config": {"name": "conv2_block2_1_conv", "trainable": true, "dtype": "float32", "filters": 128, "kernel_size": [1, 1], "strides": [1, 1], "padding": "valid", "data_format": "channels_last", "dilation_rate": [1, 1], "activation": "linear", "use_bias": false, "kernel_initializer": {"class_name": "VarianceScaling", "config": {"scale": 1.0, "mode": "fan_avg", "distribution": "uniform", "seed": null, "dtype": "float32"}}, "bias_initializer": {"class_name": "Zeros", "config": {"dtype": "float32"}}, "kernel_regularizer": null, "bias_regularizer": null, "activity_regularizer": null, "kernel_constraint": null, "bias_constraint": null}, "inbound_nodes": [[["conv2_block2_0_relu", 0, 0, {}]]]}, {"name": "conv2_block2_1_bn", "class_name": "BatchNormalization", "config": {"name": "conv2_block2_1_bn", "trainable": true, "dtype": "float32", "axis": [3], "momentum": 0.99, "epsilon": 1.001e-05, "center": true, "scale": true, "beta_initializer": {"class_name": "Zeros", "config": {"dtype": "float32"}}, "gamma_initializer": {"class_name": "Ones", "config": {"dtype": "float32"}}, "moving_mean_initializer": {"class_name": "Zeros", "config": {"dtype": "float32"}}, "moving_variance_initializer": {"class_name": "Ones", "config": {"dtype": "float32"}}, "beta_regularizer": null, "gamma_regularizer": null, "beta_constraint": null, "gamma_constraint": null}, "inbound_nodes": [[["conv2_block2_1_conv", 0, 0, {}]]]}, {"name": "conv2_block2_1_relu", "class_name": "Activation", "config": {"name": "conv2_block2_1_relu", "trainable": true, "dtype": "float32", "activation": "relu"}, "inbound_nodes": [[["conv2_block2_1_bn", 0, 0, {}]]]}, {"name": "conv2_block2_2_conv", "class_name": "Conv2D", "config": {"name": "conv2_block2_2_conv", "trainable": true, "dtype": "float32", "filters": 32, "kernel_size": [3, 3], "strides": [1, 1], "padding": "same", "data_format": "channels_last", "dilation_rate": [1, 1], "activation": "linear", "use_bias": false, "kernel_initializer": {"class_name": "VarianceScaling", "config": {"scale": 1.0, "mode": "fan_avg", "distribution": "uniform", "seed": null, "dtype": "float32"}}, "bias_initializer": {"class_name": "Zeros", "config": {"dtype": "float32"}}, "kernel_regularizer": null, "bias_regularizer": null, "activity_regularizer": null, "kernel_constraint": null, "bias_constraint": null}, "inbound_nodes": [[["conv2_block2_1_relu", 0, 0, {}]]]}, {"name": "conv2_block2_concat", "class_name": "Concatenate", "config": {"name": "conv2_block2_concat", "trainable": true, "dtype": "float32", "axis": 3}, "inbound_nodes": [[["conv2_block1_concat", 0, 0, {}], ["conv2_block2_2_conv", 0, 0, {}]]]}, {"name": "conv2_block3_0_bn", "class_name": "BatchNormalization", "config": {"name": "conv2_block3_0_bn", "trainable": true, "dtype": "float32", "axis": [3], "momentum": 0.99, "epsilon": 1.001e-05, "center": true, "scale": true, "beta_initializer": {"class_name": "Zeros", "config": {"dtype": "float32"}}, "gamma_initializer": {"class_name": "Ones", "config": {"dtype": "float32"}}, "moving_mean_initializer": {"class_name": "Zeros", "config": {"dtype": "float32"}}, "moving_variance_initializer": {"class_name": "Ones", "config": {"dtype": "float32"}}, "beta_regularizer": null, "gamma_regularizer": null, "beta_constraint": null, "gamma_constraint": null}, "inbound_nodes": [[["conv2_block2_concat", 0, 0, {}]]]}, {"name": "conv2_block3_0_relu", "class_name": "Activation", "config": {"name": "conv2_block3_0_relu", "trainable": true, "dtype": "float32", "activation": "relu"}, "inbound_nodes": [[["conv2_block3_0_bn", 0, 0, {}]]]}, {"name": "conv2_block3_1_conv", "class_name": "Conv2D", "config": {"name": "conv2_block3_1_conv", "trainable": true, "dtype": "float32", "filters": 128, "kernel_size": [1, 1], "strides": [1, 1], "padding": "valid", "data_format": "channels_last", "dilation_rate": [1, 1], "activation": "linear", "use_bias": false, "kernel_initializer": {"class_name": "VarianceScaling", "config": {"scale": 1.0, "mode": "fan_avg", "distribution": "uniform", "seed": null, "dtype": "float32"}}, "bias_initializer": {"class_name": "Zeros", "config": {"dtype": "float32"}}, "kernel_regularizer": null, "bias_regularizer": null, "activity_regularizer": null, "kernel_constraint": null, "bias_constraint": null}, "inbound_nodes": [[["conv2_block3_0_relu", 0, 0, {}]]]}, {"name": "conv2_block3_1_bn", "class_name": "BatchNormalization", "config": {"name": "conv2_block3_1_bn", "trainable": true, "dtype": "float32", "axis": [3], "momentum": 0.99, "epsilon": 1.001e-05, "center": true, "scale": true, "beta_initializer": {"class_name": "Zeros", "config": {"dtype": "float32"}}, "gamma_initializer": {"class_name": "Ones", "config": {"dtype": "float32"}}, "moving_mean_initializer": {"class_name": "Zeros", "config": {"dtype": "float32"}}, "moving_variance_initializer": {"class_name": "Ones", "config": {"dtype": "float32"}}, "beta_regularizer": null, "gamma_regularizer": null, "beta_constraint": null, "gamma_constraint": null}, "inbound_nodes": [[["conv2_block3_1_conv", 0, 0, {}]]]}, {"name": "conv2_block3_1_relu", "class_name": "Activation", "config": {"name": "conv2_block3_1_relu", "trainable": true, "dtype": "float32", "activation": "relu"}, "inbound_nodes": [[["conv2_block3_1_bn", 0, 0, {}]]]}, {"name": "conv2_block3_2_conv", "class_name": "Conv2D", "config": {"name": "conv2_block3_2_conv", "trainable": true, "dtype": "float32", "filters": 32, "kernel_size": [3, 3], "strides": [1, 1], "padding": "same", "data_format": "channels_last", "dilation_rate": [1, 1], "activation": "linear", "use_bias": false, "kernel_initializer": {"class_name": "VarianceScaling", "config": {"scale": 1.0, "mode": "fan_avg", "distribution": "uniform", "seed": null, "dtype": "float32"}}, "bias_initializer": {"class_name": "Zeros", "config": {"dtype": "float32"}}, "kernel_regularizer": null, "bias_regularizer": null, "activity_regularizer": null, "kernel_constraint": null, "bias_constraint": null}, "inbound_nodes": [[["conv2_block3_1_relu", 0, 0, {}]]]}, {"name": "conv2_block3_concat", "class_name": "Concatenate", "config": {"name": "conv2_block3_concat", "trainable": true, "dtype": "float32", "axis": 3}, "inbound_nodes": [[["conv2_block2_concat", 0, 0, {}], ["conv2_block3_2_conv", 0, 0, {}]]]}, {"name": "conv2_block4_0_bn", "class_name": "BatchNormalization", "config": {"name": "conv2_block4_0_bn", "trainable": true, "dtype": "float32", "axis": [3], "momentum": 0.99, "epsilon": 1.001e-05, "center": true, "scale": true, "beta_initializer": {"class_name": "Zeros", "config": {"dtype": "float32"}}, "gamma_initializer": {"class_name": "Ones", "config": {"dtype": "float32"}}, "moving_mean_initializer": {"class_name": "Zeros", "config": {"dtype": "float32"}}, "moving_variance_initializer": {"class_name": "Ones", "config": {"dtype": "float32"}}, "beta_regularizer": null, "gamma_regularizer": null, "beta_constraint": null, "gamma_constraint": null}, "inbound_nodes": [[["conv2_block3_concat", 0, 0, {}]]]}, {"name": "conv2_block4_0_relu", "class_name": "Activation", "config": {"name": "conv2_block4_0_relu", "trainable": true, "dtype": "float32", "activation": "relu"}, "inbound_nodes": [[["conv2_block4_0_bn", 0, 0, {}]]]}, {"name": "conv2_block4_1_conv", "class_name": "Conv2D", "config": {"name": "conv2_block4_1_conv", "trainable": true, "dtype": "float32", "filters": 128, "kernel_size": [1, 1], "strides": [1, 1], "padding": "valid", "data_format": "channels_last", "dilation_rate": [1, 1], "activation": "linear", "use_bias": false, "kernel_initializer": {"class_name": "VarianceScaling", "config": {"scale": 1.0, "mode": "fan_avg", "distribution": "uniform", "seed": null, "dtype": "float32"}}, "bias_initializer": {"class_name": "Zeros", "config": {"dtype": "float32"}}, "kernel_regularizer": null, "bias_regularizer": null, "activity_regularizer": null, "kernel_constraint": null, "bias_constraint": null}, "inbound_nodes": [[["conv2_block4_0_relu", 0, 0, {}]]]}, {"name": "conv2_block4_1_bn", "class_name": "BatchNormalization", "config": {"name": "conv2_block4_1_bn", "trainable": true, "dtype": "float32", "axis": [3], "momentum": 0.99, "epsilon": 1.001e-05, "center": true, "scale": true, "beta_initializer": {"class_name": "Zeros", "config": {"dtype": "float32"}}, "gamma_initializer": {"class_name": "Ones", "config": {"dtype": "float32"}}, "moving_mean_initializer": {"class_name": "Zeros", "config": {"dtype": "float32"}}, "moving_variance_initializer": {"class_name": "Ones", "config": {"dtype": "float32"}}, "beta_regularizer": null, "gamma_regularizer": null, "beta_constraint": null, "gamma_constraint": null}, "inbound_nodes": [[["conv2_block4_1_conv", 0, 0, {}]]]}, {"name": "conv2_block4_1_relu", "class_name": "Activation", "config": {"name": "conv2_block4_1_relu", "trainable": true, "dtype": "float32", "activation": "relu"}, "inbound_nodes": [[["conv2_block4_1_bn", 0, 0, {}]]]}, {"name": "conv2_block4_2_conv", "class_name": "Conv2D", "config": {"name": "conv2_block4_2_conv", "trainable": true, "dtype": "float32", "filters": 32, "kernel_size": [3, 3], "strides": [1, 1], "padding": "same", "data_format": "channels_last", "dilation_rate": [1, 1], "activation": "linear", "use_bias": false, "kernel_initializer": {"class_name": "VarianceScaling", "config": {"scale": 1.0, "mode": "fan_avg", "distribution": "uniform", "seed": null, "dtype": "float32"}}, "bias_initializer": {"class_name": "Zeros", "config": {"dtype": "float32"}}, "kernel_regularizer": null, "bias_regularizer": null, "activity_regularizer": null, "kernel_constraint": null, "bias_constraint": null}, "inbound_nodes": [[["conv2_block4_1_relu", 0, 0, {}]]]}, {"name": "conv2_block4_concat", "class_name": "Concatenate", "config": {"name": "conv2_block4_concat", "trainable": true, "dtype": "float32", "axis": 3}, "inbound_nodes": [[["conv2_block3_concat", 0, 0, {}], ["conv2_block4_2_conv", 0, 0, {}]]]}, {"name": "conv2_block5_0_bn", "class_name": "BatchNormalization", "config": {"name": "conv2_block5_0_bn", "trainable": true, "dtype": "float32", "axis": [3], "momentum": 0.99, "epsilon": 1.001e-05, "center": true, "scale": true, "beta_initializer": {"class_name": "Zeros", "config": {"dtype": "float32"}}, "gamma_initializer": {"class_name": "Ones", "config": {"dtype": "float32"}}, "moving_mean_initializer": {"class_name": "Zeros", "config": {"dtype": "float32"}}, "moving_variance_initializer": {"class_name": "Ones", "config": {"dtype": "float32"}}, "beta_regularizer": null, "gamma_regularizer": null, "beta_constraint": null, "gamma_constraint": null}, "inbound_nodes": [[["conv2_block4_concat", 0, 0, {}]]]}, {"name": "conv2_block5_0_relu", "class_name": "Activation", "config": {"name": "conv2_block5_0_relu", "trainable": true, "dtype": "float32", "activation": "relu"}, "inbound_nodes": [[["conv2_block5_0_bn", 0, 0, {}]]]}, {"name": "conv2_block5_1_conv", "class_name": "Conv2D", "config": {"name": "conv2_block5_1_conv", "trainable": true, "dtype": "float32", "filters": 128, "kernel_size": [1, 1], "strides": [1, 1], "padding": "valid", "data_format": "channels_last", "dilation_rate": [1, 1], "activation": "linear", "use_bias": false, "kernel_initializer": {"class_name": "VarianceScaling", "config": {"scale": 1.0, "mode": "fan_avg", "distribution": "uniform", "seed": null, "dtype": "float32"}}, "bias_initializer": {"class_name": "Zeros", "config": {"dtype": "float32"}}, "kernel_regularizer": null, "bias_regularizer": null, "activity_regularizer": null, "kernel_constraint": null, "bias_constraint": null}, "inbound_nodes": [[["conv2_block5_0_relu", 0, 0, {}]]]}, {"name": "conv2_block5_1_bn", "class_name": "BatchNormalization", "config": {"name": "conv2_block5_1_bn", "trainable": true, "dtype": "float32", "axis": [3], "momentum": 0.99, "epsilon": 1.001e-05, "center": true, "scale": true, "beta_initializer": {"class_name": "Zeros", "config": {"dtype": "float32"}}, "gamma_initializer": {"class_name": "Ones", "config": {"dtype": "float32"}}, "moving_mean_initializer": {"class_name": "Zeros", "config": {"dtype": "float32"}}, "moving_variance_initializer": {"class_name": "Ones", "config": {"dtype": "float32"}}, "beta_regularizer": null, "gamma_regularizer": null, "beta_constraint": null, "gamma_constraint": null}, "inbound_nodes": [[["conv2_block5_1_conv", 0, 0, {}]]]}, {"name": "conv2_block5_1_relu", "class_name": "Activation", "config": {"name": "conv2_block5_1_relu", "trainable": true, "dtype": "float32", "activation": "relu"}, "inbound_nodes": [[["conv2_block5_1_bn", 0, 0, {}]]]}, {"name": "conv2_block5_2_conv", "class_name": "Conv2D", "config": {"name": "conv2_block5_2_conv", "trainable": true, "dtype": "float32", "filters": 32, "kernel_size": [3, 3], "strides": [1, 1], "padding": "same", "data_format": "channels_last", "dilation_rate": [1, 1], "activation": "linear", "use_bias": false, "kernel_initializer": {"class_name": "VarianceScaling", "config": {"scale": 1.0, "mode": "fan_avg", "distribution": "uniform", "seed": null, "dtype": "float32"}}, "bias_initializer": {"class_name": "Zeros", "config": {"dtype": "float32"}}, "kernel_regularizer": null, "bias_regularizer": null, "activity_regularizer": null, "kernel_constraint": null, "bias_constraint": null}, "inbound_nodes": [[["conv2_block5_1_relu", 0, 0, {}]]]}, {"name": "conv2_block5_concat", "class_name": "Concatenate", "config": {"name": "conv2_block5_concat", "trainable": true, "dtype": "float32", "axis": 3}, "inbound_nodes": [[["conv2_block4_concat", 0, 0, {}], ["conv2_block5_2_conv", 0, 0, {}]]]}, {"name": "conv2_block6_0_bn", "class_name": "BatchNormalization", "config": {"name": "conv2_block6_0_bn", "trainable": true, "dtype": "float32", "axis": [3], "momentum": 0.99, "epsilon": 1.001e-05, "center": true, "scale": true, "beta_initializer": {"class_name": "Zeros", "config": {"dtype": "float32"}}, "gamma_initializer": {"class_name": "Ones", "config": {"dtype": "float32"}}, "moving_mean_initializer": {"class_name": "Zeros", "config": {"dtype": "float32"}}, "moving_variance_initializer": {"class_name": "Ones", "config": {"dtype": "float32"}}, "beta_regularizer": null, "gamma_regularizer": null, "beta_constraint": null, "gamma_constraint": null}, "inbound_nodes": [[["conv2_block5_concat", 0, 0, {}]]]}, {"name": "conv2_block6_0_relu", "class_name": "Activation", "config": {"name": "conv2_block6_0_relu", "trainable": true, "dtype": "float32", "activation": "relu"}, "inbound_nodes": [[["conv2_block6_0_bn", 0, 0, {}]]]}, {"name": "conv2_block6_1_conv", "class_name": "Conv2D", "config": {"name": "conv2_block6_1_conv", "trainable": true, "dtype": "float32", "filters": 128, "kernel_size": [1, 1], "strides": [1, 1], "padding": "valid", "data_format": "channels_last", "dilation_rate": [1, 1], "activation": "linear", "use_bias": false, "kernel_initializer": {"class_name": "VarianceScaling", "config": {"scale": 1.0, "mode": "fan_avg", "distribution": "uniform", "seed": null, "dtype": "float32"}}, "bias_initializer": {"class_name": "Zeros", "config": {"dtype": "float32"}}, "kernel_regularizer": null, "bias_regularizer": null, "activity_regularizer": null, "kernel_constraint": null, "bias_constraint": null}, "inbound_nodes": [[["conv2_block6_0_relu", 0, 0, {}]]]}, {"name": "conv2_block6_1_bn", "class_name": "BatchNormalization", "config": {"name": "conv2_block6_1_bn", "trainable": true, "dtype": "float32", "axis": [3], "momentum": 0.99, "epsilon": 1.001e-05, "center": true, "scale": true, "beta_initializer": {"class_name": "Zeros", "config": {"dtype": "float32"}}, "gamma_initializer": {"class_name": "Ones", "config": {"dtype": "float32"}}, "moving_mean_initializer": {"class_name": "Zeros", "config": {"dtype": "float32"}}, "moving_variance_initializer": {"class_name": "Ones", "config": {"dtype": "float32"}}, "beta_regularizer": null, "gamma_regularizer": null, "beta_constraint": null, "gamma_constraint": null}, "inbound_nodes": [[["conv2_block6_1_conv", 0, 0, {}]]]}, {"name": "conv2_block6_1_relu", "class_name": "Activation", "config": {"name": "conv2_block6_1_relu", "trainable": true, "dtype": "float32", "activation": "relu"}, "inbound_nodes": [[["conv2_block6_1_bn", 0, 0, {}]]]}, {"name": "conv2_block6_2_conv", "class_name": "Conv2D", "config": {"name": "conv2_block6_2_conv", "trainable": true, "dtype": "float32", "filters": 32, "kernel_size": [3, 3], "strides": [1, 1], "padding": "same", "data_format": "channels_last", "dilation_rate": [1, 1], "activation": "linear", "use_bias": false, "kernel_initializer": {"class_name": "VarianceScaling", "config": {"scale": 1.0, "mode": "fan_avg", "distribution": "uniform", "seed": null, "dtype": "float32"}}, "bias_initializer": {"class_name": "Zeros", "config": {"dtype": "float32"}}, "kernel_regularizer": null, "bias_regularizer": null, "activity_regularizer": null, "kernel_constraint": null, "bias_constraint": null}, "inbound_nodes": [[["conv2_block6_1_relu", 0, 0, {}]]]}, {"name": "conv2_block6_concat", "class_name": "Concatenate", "config": {"name": "conv2_block6_concat", "trainable": true, "dtype": "float32", "axis": 3}, "inbound_nodes": [[["conv2_block5_concat", 0, 0, {}], ["conv2_block6_2_conv", 0, 0, {}]]]}, {"name": "pool2_bn", "class_name": "BatchNormalization", "config": {"name": "pool2_bn", "trainable": true, "dtype": "float32", "axis": [3], "momentum": 0.99, "epsilon": 1.001e-05, "center": true, "scale": true, "beta_initializer": {"class_name": "Zeros", "config": {"dtype": "float32"}}, "gamma_initializer": {"class_name": "Ones", "config": {"dtype": "float32"}}, "moving_mean_initializer": {"class_name": "Zeros", "config": {"dtype": "float32"}}, "moving_variance_initializer": {"class_name": "Ones", "config": {"dtype": "float32"}}, "beta_regularizer": null, "gamma_regularizer": null, "beta_constraint": null, "gamma_constraint": null}, "inbound_nodes": [[["conv2_block6_concat", 0, 0, {}]]]}, {"name": "pool2_relu", "class_name": "Activation", "config": {"name": "pool2_relu", "trainable": true, "dtype": "float32", "activation": "relu"}, "inbound_nodes": [[["pool2_bn", 0, 0, {}]]]}, {"name": "pool2_conv", "class_name": "Conv2D", "config": {"name": "pool2_conv", "trainable": true, "dtype": "float32", "filters": 128, "kernel_size": [1, 1], "strides": [1, 1], "padding": "valid", "data_format": "channels_last", "dilation_rate": [1, 1], "activation": "linear", "use_bias": false, "kernel_initializer": {"class_name": "VarianceScaling", "config": {"scale": 1.0, "mode": "fan_avg", "distribution": "uniform", "seed": null, "dtype": "float32"}}, "bias_initializer": {"class_name": "Zeros", "config": {"dtype": "float32"}}, "kernel_regularizer": null, "bias_regularizer": null, "activity_regularizer": null, "kernel_constraint": null, "bias_constraint": null}, "inbound_nodes": [[["pool2_relu", 0, 0, {}]]]}, {"name": "pool2_pool", "class_name": "AveragePooling2D", "config": {"name": "pool2_pool", "trainable": true, "dtype": "float32", "pool_size": [2, 2], "padding": "valid", "strides": [2, 2], "data_format": "channels_last"}, "inbound_nodes": [[["pool2_conv", 0, 0, {}]]]}, {"name": "conv3_block1_0_bn", "class_name": "BatchNormalization", "config": {"name": "conv3_block1_0_bn", "trainable": true, "dtype": "float32", "axis": [3], "momentum": 0.99, "epsilon": 1.001e-05, "center": true, "scale": true, "beta_initializer": {"class_name": "Zeros", "config": {"dtype": "float32"}}, "gamma_initializer": {"class_name": "Ones", "config": {"dtype": "float32"}}, "moving_mean_initializer": {"class_name": "Zeros", "config": {"dtype": "float32"}}, "moving_variance_initializer": {"class_name": "Ones", "config": {"dtype": "float32"}}, "beta_regularizer": null, "gamma_regularizer": null, "beta_constraint": null, "gamma_constraint": null}, "inbound_nodes": [[["pool2_pool", 0, 0, {}]]]}, {"name": "conv3_block1_0_relu", "class_name": "Activation", "config": {"name": "conv3_block1_0_relu", "trainable": true, "dtype": "float32", "activation": "relu"}, "inbound_nodes": [[["conv3_block1_0_bn", 0, 0, {}]]]}, {"name": "conv3_block1_1_conv", "class_name": "Conv2D", "config": {"name": "conv3_block1_1_conv", "trainable": true, "dtype": "float32", "filters": 128, "kernel_size": [1, 1], "strides": [1, 1], "padding": "valid", "data_format": "channels_last", "dilation_rate": [1, 1], "activation": "linear", "use_bias": false, "kernel_initializer": {"class_name": "VarianceScaling", "config": {"scale": 1.0, "mode": "fan_avg", "distribution": "uniform", "seed": null, "dtype": "float32"}}, "bias_initializer": {"class_name": "Zeros", "config": {"dtype": "float32"}}, "kernel_regularizer": null, "bias_regularizer": null, "activity_regularizer": null, "kernel_constraint": null, "bias_constraint": null}, "inbound_nodes": [[["conv3_block1_0_relu", 0, 0, {}]]]}, {"name": "conv3_block1_1_bn", "class_name": "BatchNormalization", "config": {"name": "conv3_block1_1_bn", "trainable": true, "dtype": "float32", "axis": [3], "momentum": 0.99, "epsilon": 1.001e-05, "center": true, "scale": true, "beta_initializer": {"class_name": "Zeros", "config": {"dtype": "float32"}}, "gamma_initializer": {"class_name": "Ones", "config": {"dtype": "float32"}}, "moving_mean_initializer": {"class_name": "Zeros", "config": {"dtype": "float32"}}, "moving_variance_initializer": {"class_name": "Ones", "config": {"dtype": "float32"}}, "beta_regularizer": null, "gamma_regularizer": null, "beta_constraint": null, "gamma_constraint": null}, "inbound_nodes": [[["conv3_block1_1_conv", 0, 0, {}]]]}, {"name": "conv3_block1_1_relu", "class_name": "Activation", "config": {"name": "conv3_block1_1_relu", "trainable": true, "dtype": "float32", "activation": "relu"}, "inbound_nodes": [[["conv3_block1_1_bn", 0, 0, {}]]]}, {"name": "conv3_block1_2_conv", "class_name": "Conv2D", "config": {"name": "conv3_block1_2_conv", "trainable": true, "dtype": "float32", "filters": 32, "kernel_size": [3, 3], "strides": [1, 1], "padding": "same", "data_format": "channels_last", "dilation_rate": [1, 1], "activation": "linear", "use_bias": false, "kernel_initializer": {"class_name": "VarianceScaling", "config": {"scale": 1.0, "mode": "fan_avg", "distribution": "uniform", "seed": null, "dtype": "float32"}}, "bias_initializer": {"class_name": "Zeros", "config": {"dtype": "float32"}}, "kernel_regularizer": null, "bias_regularizer": null, "activity_regularizer": null, "kernel_constraint": null, "bias_constraint": null}, "inbound_nodes": [[["conv3_block1_1_relu", 0, 0, {}]]]}, {"name": "conv3_block1_concat", "class_name": "Concatenate", "config": {"name": "conv3_block1_concat", "trainable": true, "dtype": "float32", "axis": 3}, "inbound_nodes": [[["pool2_pool", 0, 0, {}], ["conv3_block1_2_conv", 0, 0, {}]]]}, {"name": "conv3_block2_0_bn", "class_name": "BatchNormalization", "config": {"name": "conv3_block2_0_bn", "trainable": true, "dtype": "float32", "axis": [3], "momentum": 0.99, "epsilon": 1.001e-05, "center": true, "scale": true, "beta_initializer": {"class_name": "Zeros", "config": {"dtype": "float32"}}, "gamma_initializer": {"class_name": "Ones", "config": {"dtype": "float32"}}, "moving_mean_initializer": {"class_name": "Zeros", "config": {"dtype": "float32"}}, "moving_variance_initializer": {"class_name": "Ones", "config": {"dtype": "float32"}}, "beta_regularizer": null, "gamma_regularizer": null, "beta_constraint": null, "gamma_constraint": null}, "inbound_nodes": [[["conv3_block1_concat", 0, 0, {}]]]}, {"name": "conv3_block2_0_relu", "class_name": "Activation", "config": {"name": "conv3_block2_0_relu", "trainable": true, "dtype": "float32", "activation": "relu"}, "inbound_nodes": [[["conv3_block2_0_bn", 0, 0, {}]]]}, {"name": "conv3_block2_1_conv", "class_name": "Conv2D", "config": {"name": "conv3_block2_1_conv", "trainable": true, "dtype": "float32", "filters": 128, "kernel_size": [1, 1], "strides": [1, 1], "padding": "valid", "data_format": "channels_last", "dilation_rate": [1, 1], "activation": "linear", "use_bias": false, "kernel_initializer": {"class_name": "VarianceScaling", "config": {"scale": 1.0, "mode": "fan_avg", "distribution": "uniform", "seed": null, "dtype": "float32"}}, "bias_initializer": {"class_name": "Zeros", "config": {"dtype": "float32"}}, "kernel_regularizer": null, "bias_regularizer": null, "activity_regularizer": null, "kernel_constraint": null, "bias_constraint": null}, "inbound_nodes": [[["conv3_block2_0_relu", 0, 0, {}]]]}, {"name": "conv3_block2_1_bn", "class_name": "BatchNormalization", "config": {"name": "conv3_block2_1_bn", "trainable": true, "dtype": "float32", "axis": [3], "momentum": 0.99, "epsilon": 1.001e-05, "center": true, "scale": true, "beta_initializer": {"class_name": "Zeros", "config": {"dtype": "float32"}}, "gamma_initializer": {"class_name": "Ones", "config": {"dtype": "float32"}}, "moving_mean_initializer": {"class_name": "Zeros", "config": {"dtype": "float32"}}, "moving_variance_initializer": {"class_name": "Ones", "config": {"dtype": "float32"}}, "beta_regularizer": null, "gamma_regularizer": null, "beta_constraint": null, "gamma_constraint": null}, "inbound_nodes": [[["conv3_block2_1_conv", 0, 0, {}]]]}, {"name": "conv3_block2_1_relu", "class_name": "Activation", "config": {"name": "conv3_block2_1_relu", "trainable": true, "dtype": "float32", "activation": "relu"}, "inbound_nodes": [[["conv3_block2_1_bn", 0, 0, {}]]]}, {"name": "conv3_block2_2_conv", "class_name": "Conv2D", "config": {"name": "conv3_block2_2_conv", "trainable": true, "dtype": "float32", "filters": 32, "kernel_size": [3, 3], "strides": [1, 1], "padding": "same", "data_format": "channels_last", "dilation_rate": [1, 1], "activation": "linear", "use_bias": false, "kernel_initializer": {"class_name": "VarianceScaling", "config": {"scale": 1.0, "mode": "fan_avg", "distribution": "uniform", "seed": null, "dtype": "float32"}}, "bias_initializer": {"class_name": "Zeros", "config": {"dtype": "float32"}}, "kernel_regularizer": null, "bias_regularizer": null, "activity_regularizer": null, "kernel_constraint": null, "bias_constraint": null}, "inbound_nodes": [[["conv3_block2_1_relu", 0, 0, {}]]]}, {"name": "conv3_block2_concat", "class_name": "Concatenate", "config": {"name": "conv3_block2_concat", "trainable": true, "dtype": "float32", "axis": 3}, "inbound_nodes": [[["conv3_block1_concat", 0, 0, {}], ["conv3_block2_2_conv", 0, 0, {}]]]}, {"name": "conv3_block3_0_bn", "class_name": "BatchNormalization", "config": {"name": "conv3_block3_0_bn", "trainable": true, "dtype": "float32", "axis": [3], "momentum": 0.99, "epsilon": 1.001e-05, "center": true, "scale": true, "beta_initializer": {"class_name": "Zeros", "config": {"dtype": "float32"}}, "gamma_initializer": {"class_name": "Ones", "config": {"dtype": "float32"}}, "moving_mean_initializer": {"class_name": "Zeros", "config": {"dtype": "float32"}}, "moving_variance_initializer": {"class_name": "Ones", "config": {"dtype": "float32"}}, "beta_regularizer": null, "gamma_regularizer": null, "beta_constraint": null, "gamma_constraint": null}, "inbound_nodes": [[["conv3_block2_concat", 0, 0, {}]]]}, {"name": "conv3_block3_0_relu", "class_name": "Activation", "config": {"name": "conv3_block3_0_relu", "trainable": true, "dtype": "float32", "activation": "relu"}, "inbound_nodes": [[["conv3_block3_0_bn", 0, 0, {}]]]}, {"name": "conv3_block3_1_conv", "class_name": "Conv2D", "config": {"name": "conv3_block3_1_conv", "trainable": true, "dtype": "float32", "filters": 128, "kernel_size": [1, 1], "strides": [1, 1], "padding": "valid", "data_format": "channels_last", "dilation_rate": [1, 1], "activation": "linear", "use_bias": false, "kernel_initializer": {"class_name": "VarianceScaling", "config": {"scale": 1.0, "mode": "fan_avg", "distribution": "uniform", "seed": null, "dtype": "float32"}}, "bias_initializer": {"class_name": "Zeros", "config": {"dtype": "float32"}}, "kernel_regularizer": null, "bias_regularizer": null, "activity_regularizer": null, "kernel_constraint": null, "bias_constraint": null}, "inbound_nodes": [[["conv3_block3_0_relu", 0, 0, {}]]]}, {"name": "conv3_block3_1_bn", "class_name": "BatchNormalization", "config": {"name": "conv3_block3_1_bn", "trainable": true, "dtype": "float32", "axis": [3], "momentum": 0.99, "epsilon": 1.001e-05, "center": true, "scale": true, "beta_initializer": {"class_name": "Zeros", "config": {"dtype": "float32"}}, "gamma_initializer": {"class_name": "Ones", "config": {"dtype": "float32"}}, "moving_mean_initializer": {"class_name": "Zeros", "config": {"dtype": "float32"}}, "moving_variance_initializer": {"class_name": "Ones", "config": {"dtype": "float32"}}, "beta_regularizer": null, "gamma_regularizer": null, "beta_constraint": null, "gamma_constraint": null}, "inbound_nodes": [[["conv3_block3_1_conv", 0, 0, {}]]]}, {"name": "conv3_block3_1_relu", "class_name": "Activation", "config": {"name": "conv3_block3_1_relu", "trainable": true, "dtype": "float32", "activation": "relu"}, "inbound_nodes": [[["conv3_block3_1_bn", 0, 0, {}]]]}, {"name": "conv3_block3_2_conv", "class_name": "Conv2D", "config": {"name": "conv3_block3_2_conv", "trainable": true, "dtype": "float32", "filters": 32, "kernel_size": [3, 3], "strides": [1, 1], "padding": "same", "data_format": "channels_last", "dilation_rate": [1, 1], "activation": "linear", "use_bias": false, "kernel_initializer": {"class_name": "VarianceScaling", "config": {"scale": 1.0, "mode": "fan_avg", "distribution": "uniform", "seed": null, "dtype": "float32"}}, "bias_initializer": {"class_name": "Zeros", "config": {"dtype": "float32"}}, "kernel_regularizer": null, "bias_regularizer": null, "activity_regularizer": null, "kernel_constraint": null, "bias_constraint": null}, "inbound_nodes": [[["conv3_block3_1_relu", 0, 0, {}]]]}, {"name": "conv3_block3_concat", "class_name": "Concatenate", "config": {"name": "conv3_block3_concat", "trainable": true, "dtype": "float32", "axis": 3}, "inbound_nodes": [[["conv3_block2_concat", 0, 0, {}], ["conv3_block3_2_conv", 0, 0, {}]]]}, {"name": "conv3_block4_0_bn", "class_name": "BatchNormalization", "config": {"name": "conv3_block4_0_bn", "trainable": true, "dtype": "float32", "axis": [3], "momentum": 0.99, "epsilon": 1.001e-05, "center": true, "scale": true, "beta_initializer": {"class_name": "Zeros", "config": {"dtype": "float32"}}, "gamma_initializer": {"class_name": "Ones", "config": {"dtype": "float32"}}, "moving_mean_initializer": {"class_name": "Zeros", "config": {"dtype": "float32"}}, "moving_variance_initializer": {"class_name": "Ones", "config": {"dtype": "float32"}}, "beta_regularizer": null, "gamma_regularizer": null, "beta_constraint": null, "gamma_constraint": null}, "inbound_nodes": [[["conv3_block3_concat", 0, 0, {}]]]}, {"name": "conv3_block4_0_relu", "class_name": "Activation", "config": {"name": "conv3_block4_0_relu", "trainable": true, "dtype": "float32", "activation": "relu"}, "inbound_nodes": [[["conv3_block4_0_bn", 0, 0, {}]]]}, {"name": "conv3_block4_1_conv", "class_name": "Conv2D", "config": {"name": "conv3_block4_1_conv", "trainable": true, "dtype": "float32", "filters": 128, "kernel_size": [1, 1], "strides": [1, 1], "padding": "valid", "data_format": "channels_last", "dilation_rate": [1, 1], "activation": "linear", "use_bias": false, "kernel_initializer": {"class_name": "VarianceScaling", "config": {"scale": 1.0, "mode": "fan_avg", "distribution": "uniform", "seed": null, "dtype": "float32"}}, "bias_initializer": {"class_name": "Zeros", "config": {"dtype": "float32"}}, "kernel_regularizer": null, "bias_regularizer": null, "activity_regularizer": null, "kernel_constraint": null, "bias_constraint": null}, "inbound_nodes": [[["conv3_block4_0_relu", 0, 0, {}]]]}, {"name": "conv3_block4_1_bn", "class_name": "BatchNormalization", "config": {"name": "conv3_block4_1_bn", "trainable": true, "dtype": "float32", "axis": [3], "momentum": 0.99, "epsilon": 1.001e-05, "center": true, "scale": true, "beta_initializer": {"class_name": "Zeros", "config": {"dtype": "float32"}}, "gamma_initializer": {"class_name": "Ones", "config": {"dtype": "float32"}}, "moving_mean_initializer": {"class_name": "Zeros", "config": {"dtype": "float32"}}, "moving_variance_initializer": {"class_name": "Ones", "config": {"dtype": "float32"}}, "beta_regularizer": null, "gamma_regularizer": null, "beta_constraint": null, "gamma_constraint": null}, "inbound_nodes": [[["conv3_block4_1_conv", 0, 0, {}]]]}, {"name": "conv3_block4_1_relu", "class_name": "Activation", "config": {"name": "conv3_block4_1_relu", "trainable": true, "dtype": "float32", "activation": "relu"}, "inbound_nodes": [[["conv3_block4_1_bn", 0, 0, {}]]]}, {"name": "conv3_block4_2_conv", "class_name": "Conv2D", "config": {"name": "conv3_block4_2_conv", "trainable": true, "dtype": "float32", "filters": 32, "kernel_size": [3, 3], "strides": [1, 1], "padding": "same", "data_format": "channels_last", "dilation_rate": [1, 1], "activation": "linear", "use_bias": false, "kernel_initializer": {"class_name": "VarianceScaling", "config": {"scale": 1.0, "mode": "fan_avg", "distribution": "uniform", "seed": null, "dtype": "float32"}}, "bias_initializer": {"class_name": "Zeros", "config": {"dtype": "float32"}}, "kernel_regularizer": null, "bias_regularizer": null, "activity_regularizer": null, "kernel_constraint": null, "bias_constraint": null}, "inbound_nodes": [[["conv3_block4_1_relu", 0, 0, {}]]]}, {"name": "conv3_block4_concat", "class_name": "Concatenate", "config": {"name": "conv3_block4_concat", "trainable": true, "dtype": "float32", "axis": 3}, "inbound_nodes": [[["conv3_block3_concat", 0, 0, {}], ["conv3_block4_2_conv", 0, 0, {}]]]}, {"name": "conv3_block5_0_bn", "class_name": "BatchNormalization", "config": {"name": "conv3_block5_0_bn", "trainable": true, "dtype": "float32", "axis": [3], "momentum": 0.99, "epsilon": 1.001e-05, "center": true, "scale": true, "beta_initializer": {"class_name": "Zeros", "config": {"dtype": "float32"}}, "gamma_initializer": {"class_name": "Ones", "config": {"dtype": "float32"}}, "moving_mean_initializer": {"class_name": "Zeros", "config": {"dtype": "float32"}}, "moving_variance_initializer": {"class_name": "Ones", "config": {"dtype": "float32"}}, "beta_regularizer": null, "gamma_regularizer": null, "beta_constraint": null, "gamma_constraint": null}, "inbound_nodes": [[["conv3_block4_concat", 0, 0, {}]]]}, {"name": "conv3_block5_0_relu", "class_name": "Activation", "config": {"name": "conv3_block5_0_relu", "trainable": true, "dtype": "float32", "activation": "relu"}, "inbound_nodes": [[["conv3_block5_0_bn", 0, 0, {}]]]}, {"name": "conv3_block5_1_conv", "class_name": "Conv2D", "config": {"name": "conv3_block5_1_conv", "trainable": true, "dtype": "float32", "filters": 128, "kernel_size": [1, 1], "strides": [1, 1], "padding": "valid", "data_format": "channels_last", "dilation_rate": [1, 1], "activation": "linear", "use_bias": false, "kernel_initializer": {"class_name": "VarianceScaling", "config": {"scale": 1.0, "mode": "fan_avg", "distribution": "uniform", "seed": null, "dtype": "float32"}}, "bias_initializer": {"class_name": "Zeros", "config": {"dtype": "float32"}}, "kernel_regularizer": null, "bias_regularizer": null, "activity_regularizer": null, "kernel_constraint": null, "bias_constraint": null}, "inbound_nodes": [[["conv3_block5_0_relu", 0, 0, {}]]]}, {"name": "conv3_block5_1_bn", "class_name": "BatchNormalization", "config": {"name": "conv3_block5_1_bn", "trainable": true, "dtype": "float32", "axis": [3], "momentum": 0.99, "epsilon": 1.001e-05, "center": true, "scale": true, "beta_initializer": {"class_name": "Zeros", "config": {"dtype": "float32"}}, "gamma_initializer": {"class_name": "Ones", "config": {"dtype": "float32"}}, "moving_mean_initializer": {"class_name": "Zeros", "config": {"dtype": "float32"}}, "moving_variance_initializer": {"class_name": "Ones", "config": {"dtype": "float32"}}, "beta_regularizer": null, "gamma_regularizer": null, "beta_constraint": null, "gamma_constraint": null}, "inbound_nodes": [[["conv3_block5_1_conv", 0, 0, {}]]]}, {"name": "conv3_block5_1_relu", "class_name": "Activation", "config": {"name": "conv3_block5_1_relu", "trainable": true, "dtype": "float32", "activation": "relu"}, "inbound_nodes": [[["conv3_block5_1_bn", 0, 0, {}]]]}, {"name": "conv3_block5_2_conv", "class_name": "Conv2D", "config": {"name": "conv3_block5_2_conv", "trainable": true, "dtype": "float32", "filters": 32, "kernel_size": [3, 3], "strides": [1, 1], "padding": "same", "data_format": "channels_last", "dilation_rate": [1, 1], "activation": "linear", "use_bias": false, "kernel_initializer": {"class_name": "VarianceScaling", "config": {"scale": 1.0, "mode": "fan_avg", "distribution": "uniform", "seed": null, "dtype": "float32"}}, "bias_initializer": {"class_name": "Zeros", "config": {"dtype": "float32"}}, "kernel_regularizer": null, "bias_regularizer": null, "activity_regularizer": null, "kernel_constraint": null, "bias_constraint": null}, "inbound_nodes": [[["conv3_block5_1_relu", 0, 0, {}]]]}, {"name": "conv3_block5_concat", "class_name": "Concatenate", "config": {"name": "conv3_block5_concat", "trainable": true, "dtype": "float32", "axis": 3}, "inbound_nodes": [[["conv3_block4_concat", 0, 0, {}], ["conv3_block5_2_conv", 0, 0, {}]]]}, {"name": "conv3_block6_0_bn", "class_name": "BatchNormalization", "config": {"name": "conv3_block6_0_bn", "trainable": true, "dtype": "float32", "axis": [3], "momentum": 0.99, "epsilon": 1.001e-05, "center": true, "scale": true, "beta_initializer": {"class_name": "Zeros", "config": {"dtype": "float32"}}, "gamma_initializer": {"class_name": "Ones", "config": {"dtype": "float32"}}, "moving_mean_initializer": {"class_name": "Zeros", "config": {"dtype": "float32"}}, "moving_variance_initializer": {"class_name": "Ones", "config": {"dtype": "float32"}}, "beta_regularizer": null, "gamma_regularizer": null, "beta_constraint": null, "gamma_constraint": null}, "inbound_nodes": [[["conv3_block5_concat", 0, 0, {}]]]}, {"name": "conv3_block6_0_relu", "class_name": "Activation", "config": {"name": "conv3_block6_0_relu", "trainable": true, "dtype": "float32", "activation": "relu"}, "inbound_nodes": [[["conv3_block6_0_bn", 0, 0, {}]]]}, {"name": "conv3_block6_1_conv", "class_name": "Conv2D", "config": {"name": "conv3_block6_1_conv", "trainable": true, "dtype": "float32", "filters": 128, "kernel_size": [1, 1], "strides": [1, 1], "padding": "valid", "data_format": "channels_last", "dilation_rate": [1, 1], "activation": "linear", "use_bias": false, "kernel_initializer": {"class_name": "VarianceScaling", "config": {"scale": 1.0, "mode": "fan_avg", "distribution": "uniform", "seed": null, "dtype": "float32"}}, "bias_initializer": {"class_name": "Zeros", "config": {"dtype": "float32"}}, "kernel_regularizer": null, "bias_regularizer": null, "activity_regularizer": null, "kernel_constraint": null, "bias_constraint": null}, "inbound_nodes": [[["conv3_block6_0_relu", 0, 0, {}]]]}, {"name": "conv3_block6_1_bn", "class_name": "BatchNormalization", "config": {"name": "conv3_block6_1_bn", "trainable": true, "dtype": "float32", "axis": [3], "momentum": 0.99, "epsilon": 1.001e-05, "center": true, "scale": true, "beta_initializer": {"class_name": "Zeros", "config": {"dtype": "float32"}}, "gamma_initializer": {"class_name": "Ones", "config": {"dtype": "float32"}}, "moving_mean_initializer": {"class_name": "Zeros", "config": {"dtype": "float32"}}, "moving_variance_initializer": {"class_name": "Ones", "config": {"dtype": "float32"}}, "beta_regularizer": null, "gamma_regularizer": null, "beta_constraint": null, "gamma_constraint": null}, "inbound_nodes": [[["conv3_block6_1_conv", 0, 0, {}]]]}, {"name": "conv3_block6_1_relu", "class_name": "Activation", "config": {"name": "conv3_block6_1_relu", "trainable": true, "dtype": "float32", "activation": "relu"}, "inbound_nodes": [[["conv3_block6_1_bn", 0, 0, {}]]]}, {"name": "conv3_block6_2_conv", "class_name": "Conv2D", "config": {"name": "conv3_block6_2_conv", "trainable": true, "dtype": "float32", "filters": 32, "kernel_size": [3, 3], "strides": [1, 1], "padding": "same", "data_format": "channels_last", "dilation_rate": [1, 1], "activation": "linear", "use_bias": false, "kernel_initializer": {"class_name": "VarianceScaling", "config": {"scale": 1.0, "mode": "fan_avg", "distribution": "uniform", "seed": null, "dtype": "float32"}}, "bias_initializer": {"class_name": "Zeros", "config": {"dtype": "float32"}}, "kernel_regularizer": null, "bias_regularizer": null, "activity_regularizer": null, "kernel_constraint": null, "bias_constraint": null}, "inbound_nodes": [[["conv3_block6_1_relu", 0, 0, {}]]]}, {"name": "conv3_block6_concat", "class_name": "Concatenate", "config": {"name": "conv3_block6_concat", "trainable": true, "dtype": "float32", "axis": 3}, "inbound_nodes": [[["conv3_block5_concat", 0, 0, {}], ["conv3_block6_2_conv", 0, 0, {}]]]}, {"name": "conv3_block7_0_bn", "class_name": "BatchNormalization", "config": {"name": "conv3_block7_0_bn", "trainable": true, "dtype": "float32", "axis": [3], "momentum": 0.99, "epsilon": 1.001e-05, "center": true, "scale": true, "beta_initializer": {"class_name": "Zeros", "config": {"dtype": "float32"}}, "gamma_initializer": {"class_name": "Ones", "config": {"dtype": "float32"}}, "moving_mean_initializer": {"class_name": "Zeros", "config": {"dtype": "float32"}}, "moving_variance_initializer": {"class_name": "Ones", "config": {"dtype": "float32"}}, "beta_regularizer": null, "gamma_regularizer": null, "beta_constraint": null, "gamma_constraint": null}, "inbound_nodes": [[["conv3_block6_concat", 0, 0, {}]]]}, {"name": "conv3_block7_0_relu", "class_name": "Activation", "config": {"name": "conv3_block7_0_relu", "trainable": true, "dtype": "float32", "activation": "relu"}, "inbound_nodes": [[["conv3_block7_0_bn", 0, 0, {}]]]}, {"name": "conv3_block7_1_conv", "class_name": "Conv2D", "config": {"name": "conv3_block7_1_conv", "trainable": true, "dtype": "float32", "filters": 128, "kernel_size": [1, 1], "strides": [1, 1], "padding": "valid", "data_format": "channels_last", "dilation_rate": [1, 1], "activation": "linear", "use_bias": false, "kernel_initializer": {"class_name": "VarianceScaling", "config": {"scale": 1.0, "mode": "fan_avg", "distribution": "uniform", "seed": null, "dtype": "float32"}}, "bias_initializer": {"class_name": "Zeros", "config": {"dtype": "float32"}}, "kernel_regularizer": null, "bias_regularizer": null, "activity_regularizer": null, "kernel_constraint": null, "bias_constraint": null}, "inbound_nodes": [[["conv3_block7_0_relu", 0, 0, {}]]]}, {"name": "conv3_block7_1_bn", "class_name": "BatchNormalization", "config": {"name": "conv3_block7_1_bn", "trainable": true, "dtype": "float32", "axis": [3], "momentum": 0.99, "epsilon": 1.001e-05, "center": true, "scale": true, "beta_initializer": {"class_name": "Zeros", "config": {"dtype": "float32"}}, "gamma_initializer": {"class_name": "Ones", "config": {"dtype": "float32"}}, "moving_mean_initializer": {"class_name": "Zeros", "config": {"dtype": "float32"}}, "moving_variance_initializer": {"class_name": "Ones", "config": {"dtype": "float32"}}, "beta_regularizer": null, "gamma_regularizer": null, "beta_constraint": null, "gamma_constraint": null}, "inbound_nodes": [[["conv3_block7_1_conv", 0, 0, {}]]]}, {"name": "conv3_block7_1_relu", "class_name": "Activation", "config": {"name": "conv3_block7_1_relu", "trainable": true, "dtype": "float32", "activation": "relu"}, "inbound_nodes": [[["conv3_block7_1_bn", 0, 0, {}]]]}, {"name": "conv3_block7_2_conv", "class_name": "Conv2D", "config": {"name": "conv3_block7_2_conv", "trainable": true, "dtype": "float32", "filters": 32, "kernel_size": [3, 3], "strides": [1, 1], "padding": "same", "data_format": "channels_last", "dilation_rate": [1, 1], "activation": "linear", "use_bias": false, "kernel_initializer": {"class_name": "VarianceScaling", "config": {"scale": 1.0, "mode": "fan_avg", "distribution": "uniform", "seed": null, "dtype": "float32"}}, "bias_initializer": {"class_name": "Zeros", "config": {"dtype": "float32"}}, "kernel_regularizer": null, "bias_regularizer": null, "activity_regularizer": null, "kernel_constraint": null, "bias_constraint": null}, "inbound_nodes": [[["conv3_block7_1_relu", 0, 0, {}]]]}, {"name": "conv3_block7_concat", "class_name": "Concatenate", "config": {"name": "conv3_block7_concat", "trainable": true, "dtype": "float32", "axis": 3}, "inbound_nodes": [[["conv3_block6_concat", 0, 0, {}], ["conv3_block7_2_conv", 0, 0, {}]]]}, {"name": "conv3_block8_0_bn", "class_name": "BatchNormalization", "config": {"name": "conv3_block8_0_bn", "trainable": true, "dtype": "float32", "axis": [3], "momentum": 0.99, "epsilon": 1.001e-05, "center": true, "scale": true, "beta_initializer": {"class_name": "Zeros", "config": {"dtype": "float32"}}, "gamma_initializer": {"class_name": "Ones", "config": {"dtype": "float32"}}, "moving_mean_initializer": {"class_name": "Zeros", "config": {"dtype": "float32"}}, "moving_variance_initializer": {"class_name": "Ones", "config": {"dtype": "float32"}}, "beta_regularizer": null, "gamma_regularizer": null, "beta_constraint": null, "gamma_constraint": null}, "inbound_nodes": [[["conv3_block7_concat", 0, 0, {}]]]}, {"name": "conv3_block8_0_relu", "class_name": "Activation", "config": {"name": "conv3_block8_0_relu", "trainable": true, "dtype": "float32", "activation": "relu"}, "inbound_nodes": [[["conv3_block8_0_bn", 0, 0, {}]]]}, {"name": "conv3_block8_1_conv", "class_name": "Conv2D", "config": {"name": "conv3_block8_1_conv", "trainable": true, "dtype": "float32", "filters": 128, "kernel_size": [1, 1], "strides": [1, 1], "padding": "valid", "data_format": "channels_last", "dilation_rate": [1, 1], "activation": "linear", "use_bias": false, "kernel_initializer": {"class_name": "VarianceScaling", "config": {"scale": 1.0, "mode": "fan_avg", "distribution": "uniform", "seed": null, "dtype": "float32"}}, "bias_initializer": {"class_name": "Zeros", "config": {"dtype": "float32"}}, "kernel_regularizer": null, "bias_regularizer": null, "activity_regularizer": null, "kernel_constraint": null, "bias_constraint": null}, "inbound_nodes": [[["conv3_block8_0_relu", 0, 0, {}]]]}, {"name": "conv3_block8_1_bn", "class_name": "BatchNormalization", "config": {"name": "conv3_block8_1_bn", "trainable": true, "dtype": "float32", "axis": [3], "momentum": 0.99, "epsilon": 1.001e-05, "center": true, "scale": true, "beta_initializer": {"class_name": "Zeros", "config": {"dtype": "float32"}}, "gamma_initializer": {"class_name": "Ones", "config": {"dtype": "float32"}}, "moving_mean_initializer": {"class_name": "Zeros", "config": {"dtype": "float32"}}, "moving_variance_initializer": {"class_name": "Ones", "config": {"dtype": "float32"}}, "beta_regularizer": null, "gamma_regularizer": null, "beta_constraint": null, "gamma_constraint": null}, "inbound_nodes": [[["conv3_block8_1_conv", 0, 0, {}]]]}, {"name": "conv3_block8_1_relu", "class_name": "Activation", "config": {"name": "conv3_block8_1_relu", "trainable": true, "dtype": "float32", "activation": "relu"}, "inbound_nodes": [[["conv3_block8_1_bn", 0, 0, {}]]]}, {"name": "conv3_block8_2_conv", "class_name": "Conv2D", "config": {"name": "conv3_block8_2_conv", "trainable": true, "dtype": "float32", "filters": 32, "kernel_size": [3, 3], "strides": [1, 1], "padding": "same", "data_format": "channels_last", "dilation_rate": [1, 1], "activation": "linear", "use_bias": false, "kernel_initializer": {"class_name": "VarianceScaling", "config": {"scale": 1.0, "mode": "fan_avg", "distribution": "uniform", "seed": null, "dtype": "float32"}}, "bias_initializer": {"class_name": "Zeros", "config": {"dtype": "float32"}}, "kernel_regularizer": null, "bias_regularizer": null, "activity_regularizer": null, "kernel_constraint": null, "bias_constraint": null}, "inbound_nodes": [[["conv3_block8_1_relu", 0, 0, {}]]]}, {"name": "conv3_block8_concat", "class_name": "Concatenate", "config": {"name": "conv3_block8_concat", "trainable": true, "dtype": "float32", "axis": 3}, "inbound_nodes": [[["conv3_block7_concat", 0, 0, {}], ["conv3_block8_2_conv", 0, 0, {}]]]}, {"name": "conv3_block9_0_bn", "class_name": "BatchNormalization", "config": {"name": "conv3_block9_0_bn", "trainable": true, "dtype": "float32", "axis": [3], "momentum": 0.99, "epsilon": 1.001e-05, "center": true, "scale": true, "beta_initializer": {"class_name": "Zeros", "config": {"dtype": "float32"}}, "gamma_initializer": {"class_name": "Ones", "config": {"dtype": "float32"}}, "moving_mean_initializer": {"class_name": "Zeros", "config": {"dtype": "float32"}}, "moving_variance_initializer": {"class_name": "Ones", "config": {"dtype": "float32"}}, "beta_regularizer": null, "gamma_regularizer": null, "beta_constraint": null, "gamma_constraint": null}, "inbound_nodes": [[["conv3_block8_concat", 0, 0, {}]]]}, {"name": "conv3_block9_0_relu", "class_name": "Activation", "config": {"name": "conv3_block9_0_relu", "trainable": true, "dtype": "float32", "activation": "relu"}, "inbound_nodes": [[["conv3_block9_0_bn", 0, 0, {}]]]}, {"name": "conv3_block9_1_conv", "class_name": "Conv2D", "config": {"name": "conv3_block9_1_conv", "trainable": true, "dtype": "float32", "filters": 128, "kernel_size": [1, 1], "strides": [1, 1], "padding": "valid", "data_format": "channels_last", "dilation_rate": [1, 1], "activation": "linear", "use_bias": false, "kernel_initializer": {"class_name": "VarianceScaling", "config": {"scale": 1.0, "mode": "fan_avg", "distribution": "uniform", "seed": null, "dtype": "float32"}}, "bias_initializer": {"class_name": "Zeros", "config": {"dtype": "float32"}}, "kernel_regularizer": null, "bias_regularizer": null, "activity_regularizer": null, "kernel_constraint": null, "bias_constraint": null}, "inbound_nodes": [[["conv3_block9_0_relu", 0, 0, {}]]]}, {"name": "conv3_block9_1_bn", "class_name": "BatchNormalization", "config": {"name": "conv3_block9_1_bn", "trainable": true, "dtype": "float32", "axis": [3], "momentum": 0.99, "epsilon": 1.001e-05, "center": true, "scale": true, "beta_initializer": {"class_name": "Zeros", "config": {"dtype": "float32"}}, "gamma_initializer": {"class_name": "Ones", "config": {"dtype": "float32"}}, "moving_mean_initializer": {"class_name": "Zeros", "config": {"dtype": "float32"}}, "moving_variance_initializer": {"class_name": "Ones", "config": {"dtype": "float32"}}, "beta_regularizer": null, "gamma_regularizer": null, "beta_constraint": null, "gamma_constraint": null}, "inbound_nodes": [[["conv3_block9_1_conv", 0, 0, {}]]]}, {"name": "conv3_block9_1_relu", "class_name": "Activation", "config": {"name": "conv3_block9_1_relu", "trainable": true, "dtype": "float32", "activation": "relu"}, "inbound_nodes": [[["conv3_block9_1_bn", 0, 0, {}]]]}, {"name": "conv3_block9_2_conv", "class_name": "Conv2D", "config": {"name": "conv3_block9_2_conv", "trainable": true, "dtype": "float32", "filters": 32, "kernel_size": [3, 3], "strides": [1, 1], "padding": "same", "data_format": "channels_last", "dilation_rate": [1, 1], "activation": "linear", "use_bias": false, "kernel_initializer": {"class_name": "VarianceScaling", "config": {"scale": 1.0, "mode": "fan_avg", "distribution": "uniform", "seed": null, "dtype": "float32"}}, "bias_initializer": {"class_name": "Zeros", "config": {"dtype": "float32"}}, "kernel_regularizer": null, "bias_regularizer": null, "activity_regularizer": null, "kernel_constraint": null, "bias_constraint": null}, "inbound_nodes": [[["conv3_block9_1_relu", 0, 0, {}]]]}, {"name": "conv3_block9_concat", "class_name": "Concatenate", "config": {"name": "conv3_block9_concat", "trainable": true, "dtype": "float32", "axis": 3}, "inbound_nodes": [[["conv3_block8_concat", 0, 0, {}], ["conv3_block9_2_conv", 0, 0, {}]]]}, {"name": "conv3_block10_0_bn", "class_name": "BatchNormalization", "config": {"name": "conv3_block10_0_bn", "trainable": true, "dtype": "float32", "axis": [3], "momentum": 0.99, "epsilon": 1.001e-05, "center": true, "scale": true, "beta_initializer": {"class_name": "Zeros", "config": {"dtype": "float32"}}, "gamma_initializer": {"class_name": "Ones", "config": {"dtype": "float32"}}, "moving_mean_initializer": {"class_name": "Zeros", "config": {"dtype": "float32"}}, "moving_variance_initializer": {"class_name": "Ones", "config": {"dtype": "float32"}}, "beta_regularizer": null, "gamma_regularizer": null, "beta_constraint": null, "gamma_constraint": null}, "inbound_nodes": [[["conv3_block9_concat", 0, 0, {}]]]}, {"name": "conv3_block10_0_relu", "class_name": "Activation", "config": {"name": "conv3_block10_0_relu", "trainable": true, "dtype": "float32", "activation": "relu"}, "inbound_nodes": [[["conv3_block10_0_bn", 0, 0, {}]]]}, {"name": "conv3_block10_1_conv", "class_name": "Conv2D", "config": {"name": "conv3_block10_1_conv", "trainable": true, "dtype": "float32", "filters": 128, "kernel_size": [1, 1], "strides": [1, 1], "padding": "valid", "data_format": "channels_last", "dilation_rate": [1, 1], "activation": "linear", "use_bias": false, "kernel_initializer": {"class_name": "VarianceScaling", "config": {"scale": 1.0, "mode": "fan_avg", "distribution": "uniform", "seed": null, "dtype": "float32"}}, "bias_initializer": {"class_name": "Zeros", "config": {"dtype": "float32"}}, "kernel_regularizer": null, "bias_regularizer": null, "activity_regularizer": null, "kernel_constraint": null, "bias_constraint": null}, "inbound_nodes": [[["conv3_block10_0_relu", 0, 0, {}]]]}, {"name": "conv3_block10_1_bn", "class_name": "BatchNormalization", "config": {"name": "conv3_block10_1_bn", "trainable": true, "dtype": "float32", "axis": [3], "momentum": 0.99, "epsilon": 1.001e-05, "center": true, "scale": true, "beta_initializer": {"class_name": "Zeros", "config": {"dtype": "float32"}}, "gamma_initializer": {"class_name": "Ones", "config": {"dtype": "float32"}}, "moving_mean_initializer": {"class_name": "Zeros", "config": {"dtype": "float32"}}, "moving_variance_initializer": {"class_name": "Ones", "config": {"dtype": "float32"}}, "beta_regularizer": null, "gamma_regularizer": null, "beta_constraint": null, "gamma_constraint": null}, "inbound_nodes": [[["conv3_block10_1_conv", 0, 0, {}]]]}, {"name": "conv3_block10_1_relu", "class_name": "Activation", "config": {"name": "conv3_block10_1_relu", "trainable": true, "dtype": "float32", "activation": "relu"}, "inbound_nodes": [[["conv3_block10_1_bn", 0, 0, {}]]]}, {"name": "conv3_block10_2_conv", "class_name": "Conv2D", "config": {"name": "conv3_block10_2_conv", "trainable": true, "dtype": "float32", "filters": 32, "kernel_size": [3, 3], "strides": [1, 1], "padding": "same", "data_format": "channels_last", "dilation_rate": [1, 1], "activation": "linear", "use_bias": false, "kernel_initializer": {"class_name": "VarianceScaling", "config": {"scale": 1.0, "mode": "fan_avg", "distribution": "uniform", "seed": null, "dtype": "float32"}}, "bias_initializer": {"class_name": "Zeros", "config": {"dtype": "float32"}}, "kernel_regularizer": null, "bias_regularizer": null, "activity_regularizer": null, "kernel_constraint": null, "bias_constraint": null}, "inbound_nodes": [[["conv3_block10_1_relu", 0, 0, {}]]]}, {"name": "conv3_block10_concat", "class_name": "Concatenate", "config": {"name": "conv3_block10_concat", "trainable": true, "dtype": "float32", "axis": 3}, "inbound_nodes": [[["conv3_block9_concat", 0, 0, {}], ["conv3_block10_2_conv", 0, 0, {}]]]}, {"name": "conv3_block11_0_bn", "class_name": "BatchNormalization", "config": {"name": "conv3_block11_0_bn", "trainable": true, "dtype": "float32", "axis": [3], "momentum": 0.99, "epsilon": 1.001e-05, "center": true, "scale": true, "beta_initializer": {"class_name": "Zeros", "config": {"dtype": "float32"}}, "gamma_initializer": {"class_name": "Ones", "config": {"dtype": "float32"}}, "moving_mean_initializer": {"class_name": "Zeros", "config": {"dtype": "float32"}}, "moving_variance_initializer": {"class_name": "Ones", "config": {"dtype": "float32"}}, "beta_regularizer": null, "gamma_regularizer": null, "beta_constraint": null, "gamma_constraint": null}, "inbound_nodes": [[["conv3_block10_concat", 0, 0, {}]]]}, {"name": "conv3_block11_0_relu", "class_name": "Activation", "config": {"name": "conv3_block11_0_relu", "trainable": true, "dtype": "float32", "activation": "relu"}, "inbound_nodes": [[["conv3_block11_0_bn", 0, 0, {}]]]}, {"name": "conv3_block11_1_conv", "class_name": "Conv2D", "config": {"name": "conv3_block11_1_conv", "trainable": true, "dtype": "float32", "filters": 128, "kernel_size": [1, 1], "strides": [1, 1], "padding": "valid", "data_format": "channels_last", "dilation_rate": [1, 1], "activation": "linear", "use_bias": false, "kernel_initializer": {"class_name": "VarianceScaling", "config": {"scale": 1.0, "mode": "fan_avg", "distribution": "uniform", "seed": null, "dtype": "float32"}}, "bias_initializer": {"class_name": "Zeros", "config": {"dtype": "float32"}}, "kernel_regularizer": null, "bias_regularizer": null, "activity_regularizer": null, "kernel_constraint": null, "bias_constraint": null}, "inbound_nodes": [[["conv3_block11_0_relu", 0, 0, {}]]]}, {"name": "conv3_block11_1_bn", "class_name": "BatchNormalization", "config": {"name": "conv3_block11_1_bn", "trainable": true, "dtype": "float32", "axis": [3], "momentum": 0.99, "epsilon": 1.001e-05, "center": true, "scale": true, "beta_initializer": {"class_name": "Zeros", "config": {"dtype": "float32"}}, "gamma_initializer": {"class_name": "Ones", "config": {"dtype": "float32"}}, "moving_mean_initializer": {"class_name": "Zeros", "config": {"dtype": "float32"}}, "moving_variance_initializer": {"class_name": "Ones", "config": {"dtype": "float32"}}, "beta_regularizer": null, "gamma_regularizer": null, "beta_constraint": null, "gamma_constraint": null}, "inbound_nodes": [[["conv3_block11_1_conv", 0, 0, {}]]]}, {"name": "conv3_block11_1_relu", "class_name": "Activation", "config": {"name": "conv3_block11_1_relu", "trainable": true, "dtype": "float32", "activation": "relu"}, "inbound_nodes": [[["conv3_block11_1_bn", 0, 0, {}]]]}, {"name": "conv3_block11_2_conv", "class_name": "Conv2D", "config": {"name": "conv3_block11_2_conv", "trainable": true, "dtype": "float32", "filters": 32, "kernel_size": [3, 3], "strides": [1, 1], "padding": "same", "data_format": "channels_last", "dilation_rate": [1, 1], "activation": "linear", "use_bias": false, "kernel_initializer": {"class_name": "VarianceScaling", "config": {"scale": 1.0, "mode": "fan_avg", "distribution": "uniform", "seed": null, "dtype": "float32"}}, "bias_initializer": {"class_name": "Zeros", "config": {"dtype": "float32"}}, "kernel_regularizer": null, "bias_regularizer": null, "activity_regularizer": null, "kernel_constraint": null, "bias_constraint": null}, "inbound_nodes": [[["conv3_block11_1_relu", 0, 0, {}]]]}, {"name": "conv3_block11_concat", "class_name": "Concatenate", "config": {"name": "conv3_block11_concat", "trainable": true, "dtype": "float32", "axis": 3}, "inbound_nodes": [[["conv3_block10_concat", 0, 0, {}], ["conv3_block11_2_conv", 0, 0, {}]]]}, {"name": "conv3_block12_0_bn", "class_name": "BatchNormalization", "config": {"name": "conv3_block12_0_bn", "trainable": true, "dtype": "float32", "axis": [3], "momentum": 0.99, "epsilon": 1.001e-05, "center": true, "scale": true, "beta_initializer": {"class_name": "Zeros", "config": {"dtype": "float32"}}, "gamma_initializer": {"class_name": "Ones", "config": {"dtype": "float32"}}, "moving_mean_initializer": {"class_name": "Zeros", "config": {"dtype": "float32"}}, "moving_variance_initializer": {"class_name": "Ones", "config": {"dtype": "float32"}}, "beta_regularizer": null, "gamma_regularizer": null, "beta_constraint": null, "gamma_constraint": null}, "inbound_nodes": [[["conv3_block11_concat", 0, 0, {}]]]}, {"name": "conv3_block12_0_relu", "class_name": "Activation", "config": {"name": "conv3_block12_0_relu", "trainable": true, "dtype": "float32", "activation": "relu"}, "inbound_nodes": [[["conv3_block12_0_bn", 0, 0, {}]]]}, {"name": "conv3_block12_1_conv", "class_name": "Conv2D", "config": {"name": "conv3_block12_1_conv", "trainable": true, "dtype": "float32", "filters": 128, "kernel_size": [1, 1], "strides": [1, 1], "padding": "valid", "data_format": "channels_last", "dilation_rate": [1, 1], "activation": "linear", "use_bias": false, "kernel_initializer": {"class_name": "VarianceScaling", "config": {"scale": 1.0, "mode": "fan_avg", "distribution": "uniform", "seed": null, "dtype": "float32"}}, "bias_initializer": {"class_name": "Zeros", "config": {"dtype": "float32"}}, "kernel_regularizer": null, "bias_regularizer": null, "activity_regularizer": null, "kernel_constraint": null, "bias_constraint": null}, "inbound_nodes": [[["conv3_block12_0_relu", 0, 0, {}]]]}, {"name": "conv3_block12_1_bn", "class_name": "BatchNormalization", "config": {"name": "conv3_block12_1_bn", "trainable": true, "dtype": "float32", "axis": [3], "momentum": 0.99, "epsilon": 1.001e-05, "center": true, "scale": true, "beta_initializer": {"class_name": "Zeros", "config": {"dtype": "float32"}}, "gamma_initializer": {"class_name": "Ones", "config": {"dtype": "float32"}}, "moving_mean_initializer": {"class_name": "Zeros", "config": {"dtype": "float32"}}, "moving_variance_initializer": {"class_name": "Ones", "config": {"dtype": "float32"}}, "beta_regularizer": null, "gamma_regularizer": null, "beta_constraint": null, "gamma_constraint": null}, "inbound_nodes": [[["conv3_block12_1_conv", 0, 0, {}]]]}, {"name": "conv3_block12_1_relu", "class_name": "Activation", "config": {"name": "conv3_block12_1_relu", "trainable": true, "dtype": "float32", "activation": "relu"}, "inbound_nodes": [[["conv3_block12_1_bn", 0, 0, {}]]]}, {"name": "conv3_block12_2_conv", "class_name": "Conv2D", "config": {"name": "conv3_block12_2_conv", "trainable": true, "dtype": "float32", "filters": 32, "kernel_size": [3, 3], "strides": [1, 1], "padding": "same", "data_format": "channels_last", "dilation_rate": [1, 1], "activation": "linear", "use_bias": false, "kernel_initializer": {"class_name": "VarianceScaling", "config": {"scale": 1.0, "mode": "fan_avg", "distribution": "uniform", "seed": null, "dtype": "float32"}}, "bias_initializer": {"class_name": "Zeros", "config": {"dtype": "float32"}}, "kernel_regularizer": null, "bias_regularizer": null, "activity_regularizer": null, "kernel_constraint": null, "bias_constraint": null}, "inbound_nodes": [[["conv3_block12_1_relu", 0, 0, {}]]]}, {"name": "conv3_block12_concat", "class_name": "Concatenate", "config": {"name": "conv3_block12_concat", "trainable": true, "dtype": "float32", "axis": 3}, "inbound_nodes": [[["conv3_block11_concat", 0, 0, {}], ["conv3_block12_2_conv", 0, 0, {}]]]}, {"name": "pool3_bn", "class_name": "BatchNormalization", "config": {"name": "pool3_bn", "trainable": true, "dtype": "float32", "axis": [3], "momentum": 0.99, "epsilon": 1.001e-05, "center": true, "scale": true, "beta_initializer": {"class_name": "Zeros", "config": {"dtype": "float32"}}, "gamma_initializer": {"class_name": "Ones", "config": {"dtype": "float32"}}, "moving_mean_initializer": {"class_name": "Zeros", "config": {"dtype": "float32"}}, "moving_variance_initializer": {"class_name": "Ones", "config": {"dtype": "float32"}}, "beta_regularizer": null, "gamma_regularizer": null, "beta_constraint": null, "gamma_constraint": null}, "inbound_nodes": [[["conv3_block12_concat", 0, 0, {}]]]}, {"name": "pool3_relu", "class_name": "Activation", "config": {"name": "pool3_relu", "trainable": true, "dtype": "float32", "activation": "relu"}, "inbound_nodes": [[["pool3_bn", 0, 0, {}]]]}, {"name": "pool3_conv", "class_name": "Conv2D", "config": {"name": "pool3_conv", "trainable": true, "dtype": "float32", "filters": 256, "kernel_size": [1, 1], "strides": [1, 1], "padding": "valid", "data_format": "channels_last", "dilation_rate": [1, 1], "activation": "linear", "use_bias": false, "kernel_initializer": {"class_name": "VarianceScaling", "config": {"scale": 1.0, "mode": "fan_avg", "distribution": "uniform", "seed": null, "dtype": "float32"}}, "bias_initializer": {"class_name": "Zeros", "config": {"dtype": "float32"}}, "kernel_regularizer": null, "bias_regularizer": null, "activity_regularizer": null, "kernel_constraint": null, "bias_constraint": null}, "inbound_nodes": [[["pool3_relu", 0, 0, {}]]]}, {"name": "pool3_pool", "class_name": "AveragePooling2D", "config": {"name": "pool3_pool", "trainable": true, "dtype": "float32", "pool_size": [2, 2], "padding": "valid", "strides": [2, 2], "data_format": "channels_last"}, "inbound_nodes": [[["pool3_conv", 0, 0, {}]]]}, {"name": "conv4_block1_0_bn", "class_name": "BatchNormalization", "config": {"name": "conv4_block1_0_bn", "trainable": true, "dtype": "float32", "axis": [3], "momentum": 0.99, "epsilon": 1.001e-05, "center": true, "scale": true, "beta_initializer": {"class_name": "Zeros", "config": {"dtype": "float32"}}, "gamma_initializer": {"class_name": "Ones", "config": {"dtype": "float32"}}, "moving_mean_initializer": {"class_name": "Zeros", "config": {"dtype": "float32"}}, "moving_variance_initializer": {"class_name": "Ones", "config": {"dtype": "float32"}}, "beta_regularizer": null, "gamma_regularizer": null, "beta_constraint": null, "gamma_constraint": null}, "inbound_nodes": [[["pool3_pool", 0, 0, {}]]]}, {"name": "conv4_block1_0_relu", "class_name": "Activation", "config": {"name": "conv4_block1_0_relu", "trainable": true, "dtype": "float32", "activation": "relu"}, "inbound_nodes": [[["conv4_block1_0_bn", 0, 0, {}]]]}, {"name": "conv4_block1_1_conv", "class_name": "Conv2D", "config": {"name": "conv4_block1_1_conv", "trainable": true, "dtype": "float32", "filters": 128, "kernel_size": [1, 1], "strides": [1, 1], "padding": "valid", "data_format": "channels_last", "dilation_rate": [1, 1], "activation": "linear", "use_bias": false, "kernel_initializer": {"class_name": "VarianceScaling", "config": {"scale": 1.0, "mode": "fan_avg", "distribution": "uniform", "seed": null, "dtype": "float32"}}, "bias_initializer": {"class_name": "Zeros", "config": {"dtype": "float32"}}, "kernel_regularizer": null, "bias_regularizer": null, "activity_regularizer": null, "kernel_constraint": null, "bias_constraint": null}, "inbound_nodes": [[["conv4_block1_0_relu", 0, 0, {}]]]}, {"name": "conv4_block1_1_bn", "class_name": "BatchNormalization", "config": {"name": "conv4_block1_1_bn", "trainable": true, "dtype": "float32", "axis": [3], "momentum": 0.99, "epsilon": 1.001e-05, "center": true, "scale": true, "beta_initializer": {"class_name": "Zeros", "config": {"dtype": "float32"}}, "gamma_initializer": {"class_name": "Ones", "config": {"dtype": "float32"}}, "moving_mean_initializer": {"class_name": "Zeros", "config": {"dtype": "float32"}}, "moving_variance_initializer": {"class_name": "Ones", "config": {"dtype": "float32"}}, "beta_regularizer": null, "gamma_regularizer": null, "beta_constraint": null, "gamma_constraint": null}, "inbound_nodes": [[["conv4_block1_1_conv", 0, 0, {}]]]}, {"name": "conv4_block1_1_relu", "class_name": "Activation", "config": {"name": "conv4_block1_1_relu", "trainable": true, "dtype": "float32", "activation": "relu"}, "inbound_nodes": [[["conv4_block1_1_bn", 0, 0, {}]]]}, {"name": "conv4_block1_2_conv", "class_name": "Conv2D", "config": {"name": "conv4_block1_2_conv", "trainable": true, "dtype": "float32", "filters": 32, "kernel_size": [3, 3], "strides": [1, 1], "padding": "same", "data_format": "channels_last", "dilation_rate": [1, 1], "activation": "linear", "use_bias": false, "kernel_initializer": {"class_name": "VarianceScaling", "config": {"scale": 1.0, "mode": "fan_avg", "distribution": "uniform", "seed": null, "dtype": "float32"}}, "bias_initializer": {"class_name": "Zeros", "config": {"dtype": "float32"}}, "kernel_regularizer": null, "bias_regularizer": null, "activity_regularizer": null, "kernel_constraint": null, "bias_constraint": null}, "inbound_nodes": [[["conv4_block1_1_relu", 0, 0, {}]]]}, {"name": "conv4_block1_concat", "class_name": "Concatenate", "config": {"name": "conv4_block1_concat", "trainable": true, "dtype": "float32", "axis": 3}, "inbound_nodes": [[["pool3_pool", 0, 0, {}], ["conv4_block1_2_conv", 0, 0, {}]]]}, {"name": "conv4_block2_0_bn", "class_name": "BatchNormalization", "config": {"name": "conv4_block2_0_bn", "trainable": true, "dtype": "float32", "axis": [3], "momentum": 0.99, "epsilon": 1.001e-05, "center": true, "scale": true, "beta_initializer": {"class_name": "Zeros", "config": {"dtype": "float32"}}, "gamma_initializer": {"class_name": "Ones", "config": {"dtype": "float32"}}, "moving_mean_initializer": {"class_name": "Zeros", "config": {"dtype": "float32"}}, "moving_variance_initializer": {"class_name": "Ones", "config": {"dtype": "float32"}}, "beta_regularizer": null, "gamma_regularizer": null, "beta_constraint": null, "gamma_constraint": null}, "inbound_nodes": [[["conv4_block1_concat", 0, 0, {}]]]}, {"name": "conv4_block2_0_relu", "class_name": "Activation", "config": {"name": "conv4_block2_0_relu", "trainable": true, "dtype": "float32", "activation": "relu"}, "inbound_nodes": [[["conv4_block2_0_bn", 0, 0, {}]]]}, {"name": "conv4_block2_1_conv", "class_name": "Conv2D", "config": {"name": "conv4_block2_1_conv", "trainable": true, "dtype": "float32", "filters": 128, "kernel_size": [1, 1], "strides": [1, 1], "padding": "valid", "data_format": "channels_last", "dilation_rate": [1, 1], "activation": "linear", "use_bias": false, "kernel_initializer": {"class_name": "VarianceScaling", "config": {"scale": 1.0, "mode": "fan_avg", "distribution": "uniform", "seed": null, "dtype": "float32"}}, "bias_initializer": {"class_name": "Zeros", "config": {"dtype": "float32"}}, "kernel_regularizer": null, "bias_regularizer": null, "activity_regularizer": null, "kernel_constraint": null, "bias_constraint": null}, "inbound_nodes": [[["conv4_block2_0_relu", 0, 0, {}]]]}, {"name": "conv4_block2_1_bn", "class_name": "BatchNormalization", "config": {"name": "conv4_block2_1_bn", "trainable": true, "dtype": "float32", "axis": [3], "momentum": 0.99, "epsilon": 1.001e-05, "center": true, "scale": true, "beta_initializer": {"class_name": "Zeros", "config": {"dtype": "float32"}}, "gamma_initializer": {"class_name": "Ones", "config": {"dtype": "float32"}}, "moving_mean_initializer": {"class_name": "Zeros", "config": {"dtype": "float32"}}, "moving_variance_initializer": {"class_name": "Ones", "config": {"dtype": "float32"}}, "beta_regularizer": null, "gamma_regularizer": null, "beta_constraint": null, "gamma_constraint": null}, "inbound_nodes": [[["conv4_block2_1_conv", 0, 0, {}]]]}, {"name": "conv4_block2_1_relu", "class_name": "Activation", "config": {"name": "conv4_block2_1_relu", "trainable": true, "dtype": "float32", "activation": "relu"}, "inbound_nodes": [[["conv4_block2_1_bn", 0, 0, {}]]]}, {"name": "conv4_block2_2_conv", "class_name": "Conv2D", "config": {"name": "conv4_block2_2_conv", "trainable": true, "dtype": "float32", "filters": 32, "kernel_size": [3, 3], "strides": [1, 1], "padding": "same", "data_format": "channels_last", "dilation_rate": [1, 1], "activation": "linear", "use_bias": false, "kernel_initializer": {"class_name": "VarianceScaling", "config": {"scale": 1.0, "mode": "fan_avg", "distribution": "uniform", "seed": null, "dtype": "float32"}}, "bias_initializer": {"class_name": "Zeros", "config": {"dtype": "float32"}}, "kernel_regularizer": null, "bias_regularizer": null, "activity_regularizer": null, "kernel_constraint": null, "bias_constraint": null}, "inbound_nodes": [[["conv4_block2_1_relu", 0, 0, {}]]]}, {"name": "conv4_block2_concat", "class_name": "Concatenate", "config": {"name": "conv4_block2_concat", "trainable": true, "dtype": "float32", "axis": 3}, "inbound_nodes": [[["conv4_block1_concat", 0, 0, {}], ["conv4_block2_2_conv", 0, 0, {}]]]}, {"name": "conv4_block3_0_bn", "class_name": "BatchNormalization", "config": {"name": "conv4_block3_0_bn", "trainable": true, "dtype": "float32", "axis": [3], "momentum": 0.99, "epsilon": 1.001e-05, "center": true, "scale": true, "beta_initializer": {"class_name": "Zeros", "config": {"dtype": "float32"}}, "gamma_initializer": {"class_name": "Ones", "config": {"dtype": "float32"}}, "moving_mean_initializer": {"class_name": "Zeros", "config": {"dtype": "float32"}}, "moving_variance_initializer": {"class_name": "Ones", "config": {"dtype": "float32"}}, "beta_regularizer": null, "gamma_regularizer": null, "beta_constraint": null, "gamma_constraint": null}, "inbound_nodes": [[["conv4_block2_concat", 0, 0, {}]]]}, {"name": "conv4_block3_0_relu", "class_name": "Activation", "config": {"name": "conv4_block3_0_relu", "trainable": true, "dtype": "float32", "activation": "relu"}, "inbound_nodes": [[["conv4_block3_0_bn", 0, 0, {}]]]}, {"name": "conv4_block3_1_conv", "class_name": "Conv2D", "config": {"name": "conv4_block3_1_conv", "trainable": true, "dtype": "float32", "filters": 128, "kernel_size": [1, 1], "strides": [1, 1], "padding": "valid", "data_format": "channels_last", "dilation_rate": [1, 1], "activation": "linear", "use_bias": false, "kernel_initializer": {"class_name": "VarianceScaling", "config": {"scale": 1.0, "mode": "fan_avg", "distribution": "uniform", "seed": null, "dtype": "float32"}}, "bias_initializer": {"class_name": "Zeros", "config": {"dtype": "float32"}}, "kernel_regularizer": null, "bias_regularizer": null, "activity_regularizer": null, "kernel_constraint": null, "bias_constraint": null}, "inbound_nodes": [[["conv4_block3_0_relu", 0, 0, {}]]]}, {"name": "conv4_block3_1_bn", "class_name": "BatchNormalization", "config": {"name": "conv4_block3_1_bn", "trainable": true, "dtype": "float32", "axis": [3], "momentum": 0.99, "epsilon": 1.001e-05, "center": true, "scale": true, "beta_initializer": {"class_name": "Zeros", "config": {"dtype": "float32"}}, "gamma_initializer": {"class_name": "Ones", "config": {"dtype": "float32"}}, "moving_mean_initializer": {"class_name": "Zeros", "config": {"dtype": "float32"}}, "moving_variance_initializer": {"class_name": "Ones", "config": {"dtype": "float32"}}, "beta_regularizer": null, "gamma_regularizer": null, "beta_constraint": null, "gamma_constraint": null}, "inbound_nodes": [[["conv4_block3_1_conv", 0, 0, {}]]]}, {"name": "conv4_block3_1_relu", "class_name": "Activation", "config": {"name": "conv4_block3_1_relu", "trainable": true, "dtype": "float32", "activation": "relu"}, "inbound_nodes": [[["conv4_block3_1_bn", 0, 0, {}]]]}, {"name": "conv4_block3_2_conv", "class_name": "Conv2D", "config": {"name": "conv4_block3_2_conv", "trainable": true, "dtype": "float32", "filters": 32, "kernel_size": [3, 3], "strides": [1, 1], "padding": "same", "data_format": "channels_last", "dilation_rate": [1, 1], "activation": "linear", "use_bias": false, "kernel_initializer": {"class_name": "VarianceScaling", "config": {"scale": 1.0, "mode": "fan_avg", "distribution": "uniform", "seed": null, "dtype": "float32"}}, "bias_initializer": {"class_name": "Zeros", "config": {"dtype": "float32"}}, "kernel_regularizer": null, "bias_regularizer": null, "activity_regularizer": null, "kernel_constraint": null, "bias_constraint": null}, "inbound_nodes": [[["conv4_block3_1_relu", 0, 0, {}]]]}, {"name": "conv4_block3_concat", "class_name": "Concatenate", "config": {"name": "conv4_block3_concat", "trainable": true, "dtype": "float32", "axis": 3}, "inbound_nodes": [[["conv4_block2_concat", 0, 0, {}], ["conv4_block3_2_conv", 0, 0, {}]]]}, {"name": "conv4_block4_0_bn", "class_name": "BatchNormalization", "config": {"name": "conv4_block4_0_bn", "trainable": true, "dtype": "float32", "axis": [3], "momentum": 0.99, "epsilon": 1.001e-05, "center": true, "scale": true, "beta_initializer": {"class_name": "Zeros", "config": {"dtype": "float32"}}, "gamma_initializer": {"class_name": "Ones", "config": {"dtype": "float32"}}, "moving_mean_initializer": {"class_name": "Zeros", "config": {"dtype": "float32"}}, "moving_variance_initializer": {"class_name": "Ones", "config": {"dtype": "float32"}}, "beta_regularizer": null, "gamma_regularizer": null, "beta_constraint": null, "gamma_constraint": null}, "inbound_nodes": [[["conv4_block3_concat", 0, 0, {}]]]}, {"name": "conv4_block4_0_relu", "class_name": "Activation", "config": {"name": "conv4_block4_0_relu", "trainable": true, "dtype": "float32", "activation": "relu"}, "inbound_nodes": [[["conv4_block4_0_bn", 0, 0, {}]]]}, {"name": "conv4_block4_1_conv", "class_name": "Conv2D", "config": {"name": "conv4_block4_1_conv", "trainable": true, "dtype": "float32", "filters": 128, "kernel_size": [1, 1], "strides": [1, 1], "padding": "valid", "data_format": "channels_last", "dilation_rate": [1, 1], "activation": "linear", "use_bias": false, "kernel_initializer": {"class_name": "VarianceScaling", "config": {"scale": 1.0, "mode": "fan_avg", "distribution": "uniform", "seed": null, "dtype": "float32"}}, "bias_initializer": {"class_name": "Zeros", "config": {"dtype": "float32"}}, "kernel_regularizer": null, "bias_regularizer": null, "activity_regularizer": null, "kernel_constraint": null, "bias_constraint": null}, "inbound_nodes": [[["conv4_block4_0_relu", 0, 0, {}]]]}, {"name": "conv4_block4_1_bn", "class_name": "BatchNormalization", "config": {"name": "conv4_block4_1_bn", "trainable": true, "dtype": "float32", "axis": [3], "momentum": 0.99, "epsilon": 1.001e-05, "center": true, "scale": true, "beta_initializer": {"class_name": "Zeros", "config": {"dtype": "float32"}}, "gamma_initializer": {"class_name": "Ones", "config": {"dtype": "float32"}}, "moving_mean_initializer": {"class_name": "Zeros", "config": {"dtype": "float32"}}, "moving_variance_initializer": {"class_name": "Ones", "config": {"dtype": "float32"}}, "beta_regularizer": null, "gamma_regularizer": null, "beta_constraint": null, "gamma_constraint": null}, "inbound_nodes": [[["conv4_block4_1_conv", 0, 0, {}]]]}, {"name": "conv4_block4_1_relu", "class_name": "Activation", "config": {"name": "conv4_block4_1_relu", "trainable": true, "dtype": "float32", "activation": "relu"}, "inbound_nodes": [[["conv4_block4_1_bn", 0, 0, {}]]]}, {"name": "conv4_block4_2_conv", "class_name": "Conv2D", "config": {"name": "conv4_block4_2_conv", "trainable": true, "dtype": "float32", "filters": 32, "kernel_size": [3, 3], "strides": [1, 1], "padding": "same", "data_format": "channels_last", "dilation_rate": [1, 1], "activation": "linear", "use_bias": false, "kernel_initializer": {"class_name": "VarianceScaling", "config": {"scale": 1.0, "mode": "fan_avg", "distribution": "uniform", "seed": null, "dtype": "float32"}}, "bias_initializer": {"class_name": "Zeros", "config": {"dtype": "float32"}}, "kernel_regularizer": null, "bias_regularizer": null, "activity_regularizer": null, "kernel_constraint": null, "bias_constraint": null}, "inbound_nodes": [[["conv4_block4_1_relu", 0, 0, {}]]]}, {"name": "conv4_block4_concat", "class_name": "Concatenate", "config": {"name": "conv4_block4_concat", "trainable": true, "dtype": "float32", "axis": 3}, "inbound_nodes": [[["conv4_block3_concat", 0, 0, {}], ["conv4_block4_2_conv", 0, 0, {}]]]}, {"name": "conv4_block5_0_bn", "class_name": "BatchNormalization", "config": {"name": "conv4_block5_0_bn", "trainable": true, "dtype": "float32", "axis": [3], "momentum": 0.99, "epsilon": 1.001e-05, "center": true, "scale": true, "beta_initializer": {"class_name": "Zeros", "config": {"dtype": "float32"}}, "gamma_initializer": {"class_name": "Ones", "config": {"dtype": "float32"}}, "moving_mean_initializer": {"class_name": "Zeros", "config": {"dtype": "float32"}}, "moving_variance_initializer": {"class_name": "Ones", "config": {"dtype": "float32"}}, "beta_regularizer": null, "gamma_regularizer": null, "beta_constraint": null, "gamma_constraint": null}, "inbound_nodes": [[["conv4_block4_concat", 0, 0, {}]]]}, {"name": "conv4_block5_0_relu", "class_name": "Activation", "config": {"name": "conv4_block5_0_relu", "trainable": true, "dtype": "float32", "activation": "relu"}, "inbound_nodes": [[["conv4_block5_0_bn", 0, 0, {}]]]}, {"name": "conv4_block5_1_conv", "class_name": "Conv2D", "config": {"name": "conv4_block5_1_conv", "trainable": true, "dtype": "float32", "filters": 128, "kernel_size": [1, 1], "strides": [1, 1], "padding": "valid", "data_format": "channels_last", "dilation_rate": [1, 1], "activation": "linear", "use_bias": false, "kernel_initializer": {"class_name": "VarianceScaling", "config": {"scale": 1.0, "mode": "fan_avg", "distribution": "uniform", "seed": null, "dtype": "float32"}}, "bias_initializer": {"class_name": "Zeros", "config": {"dtype": "float32"}}, "kernel_regularizer": null, "bias_regularizer": null, "activity_regularizer": null, "kernel_constraint": null, "bias_constraint": null}, "inbound_nodes": [[["conv4_block5_0_relu", 0, 0, {}]]]}, {"name": "conv4_block5_1_bn", "class_name": "BatchNormalization", "config": {"name": "conv4_block5_1_bn", "trainable": true, "dtype": "float32", "axis": [3], "momentum": 0.99, "epsilon": 1.001e-05, "center": true, "scale": true, "beta_initializer": {"class_name": "Zeros", "config": {"dtype": "float32"}}, "gamma_initializer": {"class_name": "Ones", "config": {"dtype": "float32"}}, "moving_mean_initializer": {"class_name": "Zeros", "config": {"dtype": "float32"}}, "moving_variance_initializer": {"class_name": "Ones", "config": {"dtype": "float32"}}, "beta_regularizer": null, "gamma_regularizer": null, "beta_constraint": null, "gamma_constraint": null}, "inbound_nodes": [[["conv4_block5_1_conv", 0, 0, {}]]]}, {"name": "conv4_block5_1_relu", "class_name": "Activation", "config": {"name": "conv4_block5_1_relu", "trainable": true, "dtype": "float32", "activation": "relu"}, "inbound_nodes": [[["conv4_block5_1_bn", 0, 0, {}]]]}, {"name": "conv4_block5_2_conv", "class_name": "Conv2D", "config": {"name": "conv4_block5_2_conv", "trainable": true, "dtype": "float32", "filters": 32, "kernel_size": [3, 3], "strides": [1, 1], "padding": "same", "data_format": "channels_last", "dilation_rate": [1, 1], "activation": "linear", "use_bias": false, "kernel_initializer": {"class_name": "VarianceScaling", "config": {"scale": 1.0, "mode": "fan_avg", "distribution": "uniform", "seed": null, "dtype": "float32"}}, "bias_initializer": {"class_name": "Zeros", "config": {"dtype": "float32"}}, "kernel_regularizer": null, "bias_regularizer": null, "activity_regularizer": null, "kernel_constraint": null, "bias_constraint": null}, "inbound_nodes": [[["conv4_block5_1_relu", 0, 0, {}]]]}, {"name": "conv4_block5_concat", "class_name": "Concatenate", "config": {"name": "conv4_block5_concat", "trainable": true, "dtype": "float32", "axis": 3}, "inbound_nodes": [[["conv4_block4_concat", 0, 0, {}], ["conv4_block5_2_conv", 0, 0, {}]]]}, {"name": "conv4_block6_0_bn", "class_name": "BatchNormalization", "config": {"name": "conv4_block6_0_bn", "trainable": true, "dtype": "float32", "axis": [3], "momentum": 0.99, "epsilon": 1.001e-05, "center": true, "scale": true, "beta_initializer": {"class_name": "Zeros", "config": {"dtype": "float32"}}, "gamma_initializer": {"class_name": "Ones", "config": {"dtype": "float32"}}, "moving_mean_initializer": {"class_name": "Zeros", "config": {"dtype": "float32"}}, "moving_variance_initializer": {"class_name": "Ones", "config": {"dtype": "float32"}}, "beta_regularizer": null, "gamma_regularizer": null, "beta_constraint": null, "gamma_constraint": null}, "inbound_nodes": [[["conv4_block5_concat", 0, 0, {}]]]}, {"name": "conv4_block6_0_relu", "class_name": "Activation", "config": {"name": "conv4_block6_0_relu", "trainable": true, "dtype": "float32", "activation": "relu"}, "inbound_nodes": [[["conv4_block6_0_bn", 0, 0, {}]]]}, {"name": "conv4_block6_1_conv", "class_name": "Conv2D", "config": {"name": "conv4_block6_1_conv", "trainable": true, "dtype": "float32", "filters": 128, "kernel_size": [1, 1], "strides": [1, 1], "padding": "valid", "data_format": "channels_last", "dilation_rate": [1, 1], "activation": "linear", "use_bias": false, "kernel_initializer": {"class_name": "VarianceScaling", "config": {"scale": 1.0, "mode": "fan_avg", "distribution": "uniform", "seed": null, "dtype": "float32"}}, "bias_initializer": {"class_name": "Zeros", "config": {"dtype": "float32"}}, "kernel_regularizer": null, "bias_regularizer": null, "activity_regularizer": null, "kernel_constraint": null, "bias_constraint": null}, "inbound_nodes": [[["conv4_block6_0_relu", 0, 0, {}]]]}, {"name": "conv4_block6_1_bn", "class_name": "BatchNormalization", "config": {"name": "conv4_block6_1_bn", "trainable": true, "dtype": "float32", "axis": [3], "momentum": 0.99, "epsilon": 1.001e-05, "center": true, "scale": true, "beta_initializer": {"class_name": "Zeros", "config": {"dtype": "float32"}}, "gamma_initializer": {"class_name": "Ones", "config": {"dtype": "float32"}}, "moving_mean_initializer": {"class_name": "Zeros", "config": {"dtype": "float32"}}, "moving_variance_initializer": {"class_name": "Ones", "config": {"dtype": "float32"}}, "beta_regularizer": null, "gamma_regularizer": null, "beta_constraint": null, "gamma_constraint": null}, "inbound_nodes": [[["conv4_block6_1_conv", 0, 0, {}]]]}, {"name": "conv4_block6_1_relu", "class_name": "Activation", "config": {"name": "conv4_block6_1_relu", "trainable": true, "dtype": "float32", "activation": "relu"}, "inbound_nodes": [[["conv4_block6_1_bn", 0, 0, {}]]]}, {"name": "conv4_block6_2_conv", "class_name": "Conv2D", "config": {"name": "conv4_block6_2_conv", "trainable": true, "dtype": "float32", "filters": 32, "kernel_size": [3, 3], "strides": [1, 1], "padding": "same", "data_format": "channels_last", "dilation_rate": [1, 1], "activation": "linear", "use_bias": false, "kernel_initializer": {"class_name": "VarianceScaling", "config": {"scale": 1.0, "mode": "fan_avg", "distribution": "uniform", "seed": null, "dtype": "float32"}}, "bias_initializer": {"class_name": "Zeros", "config": {"dtype": "float32"}}, "kernel_regularizer": null, "bias_regularizer": null, "activity_regularizer": null, "kernel_constraint": null, "bias_constraint": null}, "inbound_nodes": [[["conv4_block6_1_relu", 0, 0, {}]]]}, {"name": "conv4_block6_concat", "class_name": "Concatenate", "config": {"name": "conv4_block6_concat", "trainable": true, "dtype": "float32", "axis": 3}, "inbound_nodes": [[["conv4_block5_concat", 0, 0, {}], ["conv4_block6_2_conv", 0, 0, {}]]]}, {"name": "conv4_block7_0_bn", "class_name": "BatchNormalization", "config": {"name": "conv4_block7_0_bn", "trainable": true, "dtype": "float32", "axis": [3], "momentum": 0.99, "epsilon": 1.001e-05, "center": true, "scale": true, "beta_initializer": {"class_name": "Zeros", "config": {"dtype": "float32"}}, "gamma_initializer": {"class_name": "Ones", "config": {"dtype": "float32"}}, "moving_mean_initializer": {"class_name": "Zeros", "config": {"dtype": "float32"}}, "moving_variance_initializer": {"class_name": "Ones", "config": {"dtype": "float32"}}, "beta_regularizer": null, "gamma_regularizer": null, "beta_constraint": null, "gamma_constraint": null}, "inbound_nodes": [[["conv4_block6_concat", 0, 0, {}]]]}, {"name": "conv4_block7_0_relu", "class_name": "Activation", "config": {"name": "conv4_block7_0_relu", "trainable": true, "dtype": "float32", "activation": "relu"}, "inbound_nodes": [[["conv4_block7_0_bn", 0, 0, {}]]]}, {"name": "conv4_block7_1_conv", "class_name": "Conv2D", "config": {"name": "conv4_block7_1_conv", "trainable": true, "dtype": "float32", "filters": 128, "kernel_size": [1, 1], "strides": [1, 1], "padding": "valid", "data_format": "channels_last", "dilation_rate": [1, 1], "activation": "linear", "use_bias": false, "kernel_initializer": {"class_name": "VarianceScaling", "config": {"scale": 1.0, "mode": "fan_avg", "distribution": "uniform", "seed": null, "dtype": "float32"}}, "bias_initializer": {"class_name": "Zeros", "config": {"dtype": "float32"}}, "kernel_regularizer": null, "bias_regularizer": null, "activity_regularizer": null, "kernel_constraint": null, "bias_constraint": null}, "inbound_nodes": [[["conv4_block7_0_relu", 0, 0, {}]]]}, {"name": "conv4_block7_1_bn", "class_name": "BatchNormalization", "config": {"name": "conv4_block7_1_bn", "trainable": true, "dtype": "float32", "axis": [3], "momentum": 0.99, "epsilon": 1.001e-05, "center": true, "scale": true, "beta_initializer": {"class_name": "Zeros", "config": {"dtype": "float32"}}, "gamma_initializer": {"class_name": "Ones", "config": {"dtype": "float32"}}, "moving_mean_initializer": {"class_name": "Zeros", "config": {"dtype": "float32"}}, "moving_variance_initializer": {"class_name": "Ones", "config": {"dtype": "float32"}}, "beta_regularizer": null, "gamma_regularizer": null, "beta_constraint": null, "gamma_constraint": null}, "inbound_nodes": [[["conv4_block7_1_conv", 0, 0, {}]]]}, {"name": "conv4_block7_1_relu", "class_name": "Activation", "config": {"name": "conv4_block7_1_relu", "trainable": true, "dtype": "float32", "activation": "relu"}, "inbound_nodes": [[["conv4_block7_1_bn", 0, 0, {}]]]}, {"name": "conv4_block7_2_conv", "class_name": "Conv2D", "config": {"name": "conv4_block7_2_conv", "trainable": true, "dtype": "float32", "filters": 32, "kernel_size": [3, 3], "strides": [1, 1], "padding": "same", "data_format": "channels_last", "dilation_rate": [1, 1], "activation": "linear", "use_bias": false, "kernel_initializer": {"class_name": "VarianceScaling", "config": {"scale": 1.0, "mode": "fan_avg", "distribution": "uniform", "seed": null, "dtype": "float32"}}, "bias_initializer": {"class_name": "Zeros", "config": {"dtype": "float32"}}, "kernel_regularizer": null, "bias_regularizer": null, "activity_regularizer": null, "kernel_constraint": null, "bias_constraint": null}, "inbound_nodes": [[["conv4_block7_1_relu", 0, 0, {}]]]}, {"name": "conv4_block7_concat", "class_name": "Concatenate", "config": {"name": "conv4_block7_concat", "trainable": true, "dtype": "float32", "axis": 3}, "inbound_nodes": [[["conv4_block6_concat", 0, 0, {}], ["conv4_block7_2_conv", 0, 0, {}]]]}, {"name": "conv4_block8_0_bn", "class_name": "BatchNormalization", "config": {"name": "conv4_block8_0_bn", "trainable": true, "dtype": "float32", "axis": [3], "momentum": 0.99, "epsilon": 1.001e-05, "center": true, "scale": true, "beta_initializer": {"class_name": "Zeros", "config": {"dtype": "float32"}}, "gamma_initializer": {"class_name": "Ones", "config": {"dtype": "float32"}}, "moving_mean_initializer": {"class_name": "Zeros", "config": {"dtype": "float32"}}, "moving_variance_initializer": {"class_name": "Ones", "config": {"dtype": "float32"}}, "beta_regularizer": null, "gamma_regularizer": null, "beta_constraint": null, "gamma_constraint": null}, "inbound_nodes": [[["conv4_block7_concat", 0, 0, {}]]]}, {"name": "conv4_block8_0_relu", "class_name": "Activation", "config": {"name": "conv4_block8_0_relu", "trainable": true, "dtype": "float32", "activation": "relu"}, "inbound_nodes": [[["conv4_block8_0_bn", 0, 0, {}]]]}, {"name": "conv4_block8_1_conv", "class_name": "Conv2D", "config": {"name": "conv4_block8_1_conv", "trainable": true, "dtype": "float32", "filters": 128, "kernel_size": [1, 1], "strides": [1, 1], "padding": "valid", "data_format": "channels_last", "dilation_rate": [1, 1], "activation": "linear", "use_bias": false, "kernel_initializer": {"class_name": "VarianceScaling", "config": {"scale": 1.0, "mode": "fan_avg", "distribution": "uniform", "seed": null, "dtype": "float32"}}, "bias_initializer": {"class_name": "Zeros", "config": {"dtype": "float32"}}, "kernel_regularizer": null, "bias_regularizer": null, "activity_regularizer": null, "kernel_constraint": null, "bias_constraint": null}, "inbound_nodes": [[["conv4_block8_0_relu", 0, 0, {}]]]}, {"name": "conv4_block8_1_bn", "class_name": "BatchNormalization", "config": {"name": "conv4_block8_1_bn", "trainable": true, "dtype": "float32", "axis": [3], "momentum": 0.99, "epsilon": 1.001e-05, "center": true, "scale": true, "beta_initializer": {"class_name": "Zeros", "config": {"dtype": "float32"}}, "gamma_initializer": {"class_name": "Ones", "config": {"dtype": "float32"}}, "moving_mean_initializer": {"class_name": "Zeros", "config": {"dtype": "float32"}}, "moving_variance_initializer": {"class_name": "Ones", "config": {"dtype": "float32"}}, "beta_regularizer": null, "gamma_regularizer": null, "beta_constraint": null, "gamma_constraint": null}, "inbound_nodes": [[["conv4_block8_1_conv", 0, 0, {}]]]}, {"name": "conv4_block8_1_relu", "class_name": "Activation", "config": {"name": "conv4_block8_1_relu", "trainable": true, "dtype": "float32", "activation": "relu"}, "inbound_nodes": [[["conv4_block8_1_bn", 0, 0, {}]]]}, {"name": "conv4_block8_2_conv", "class_name": "Conv2D", "config": {"name": "conv4_block8_2_conv", "trainable": true, "dtype": "float32", "filters": 32, "kernel_size": [3, 3], "strides": [1, 1], "padding": "same", "data_format": "channels_last", "dilation_rate": [1, 1], "activation": "linear", "use_bias": false, "kernel_initializer": {"class_name": "VarianceScaling", "config": {"scale": 1.0, "mode": "fan_avg", "distribution": "uniform", "seed": null, "dtype": "float32"}}, "bias_initializer": {"class_name": "Zeros", "config": {"dtype": "float32"}}, "kernel_regularizer": null, "bias_regularizer": null, "activity_regularizer": null, "kernel_constraint": null, "bias_constraint": null}, "inbound_nodes": [[["conv4_block8_1_relu", 0, 0, {}]]]}, {"name": "conv4_block8_concat", "class_name": "Concatenate", "config": {"name": "conv4_block8_concat", "trainable": true, "dtype": "float32", "axis": 3}, "inbound_nodes": [[["conv4_block7_concat", 0, 0, {}], ["conv4_block8_2_conv", 0, 0, {}]]]}, {"name": "conv4_block9_0_bn", "class_name": "BatchNormalization", "config": {"name": "conv4_block9_0_bn", "trainable": true, "dtype": "float32", "axis": [3], "momentum": 0.99, "epsilon": 1.001e-05, "center": true, "scale": true, "beta_initializer": {"class_name": "Zeros", "config": {"dtype": "float32"}}, "gamma_initializer": {"class_name": "Ones", "config": {"dtype": "float32"}}, "moving_mean_initializer": {"class_name": "Zeros", "config": {"dtype": "float32"}}, "moving_variance_initializer": {"class_name": "Ones", "config": {"dtype": "float32"}}, "beta_regularizer": null, "gamma_regularizer": null, "beta_constraint": null, "gamma_constraint": null}, "inbound_nodes": [[["conv4_block8_concat", 0, 0, {}]]]}, {"name": "conv4_block9_0_relu", "class_name": "Activation", "config": {"name": "conv4_block9_0_relu", "trainable": true, "dtype": "float32", "activation": "relu"}, "inbound_nodes": [[["conv4_block9_0_bn", 0, 0, {}]]]}, {"name": "conv4_block9_1_conv", "class_name": "Conv2D", "config": {"name": "conv4_block9_1_conv", "trainable": true, "dtype": "float32", "filters": 128, "kernel_size": [1, 1], "strides": [1, 1], "padding": "valid", "data_format": "channels_last", "dilation_rate": [1, 1], "activation": "linear", "use_bias": false, "kernel_initializer": {"class_name": "VarianceScaling", "config": {"scale": 1.0, "mode": "fan_avg", "distribution": "uniform", "seed": null, "dtype": "float32"}}, "bias_initializer": {"class_name": "Zeros", "config": {"dtype": "float32"}}, "kernel_regularizer": null, "bias_regularizer": null, "activity_regularizer": null, "kernel_constraint": null, "bias_constraint": null}, "inbound_nodes": [[["conv4_block9_0_relu", 0, 0, {}]]]}, {"name": "conv4_block9_1_bn", "class_name": "BatchNormalization", "config": {"name": "conv4_block9_1_bn", "trainable": true, "dtype": "float32", "axis": [3], "momentum": 0.99, "epsilon": 1.001e-05, "center": true, "scale": true, "beta_initializer": {"class_name": "Zeros", "config": {"dtype": "float32"}}, "gamma_initializer": {"class_name": "Ones", "config": {"dtype": "float32"}}, "moving_mean_initializer": {"class_name": "Zeros", "config": {"dtype": "float32"}}, "moving_variance_initializer": {"class_name": "Ones", "config": {"dtype": "float32"}}, "beta_regularizer": null, "gamma_regularizer": null, "beta_constraint": null, "gamma_constraint": null}, "inbound_nodes": [[["conv4_block9_1_conv", 0, 0, {}]]]}, {"name": "conv4_block9_1_relu", "class_name": "Activation", "config": {"name": "conv4_block9_1_relu", "trainable": true, "dtype": "float32", "activation": "relu"}, "inbound_nodes": [[["conv4_block9_1_bn", 0, 0, {}]]]}, {"name": "conv4_block9_2_conv", "class_name": "Conv2D", "config": {"name": "conv4_block9_2_conv", "trainable": true, "dtype": "float32", "filters": 32, "kernel_size": [3, 3], "strides": [1, 1], "padding": "same", "data_format": "channels_last", "dilation_rate": [1, 1], "activation": "linear", "use_bias": false, "kernel_initializer": {"class_name": "VarianceScaling", "config": {"scale": 1.0, "mode": "fan_avg", "distribution": "uniform", "seed": null, "dtype": "float32"}}, "bias_initializer": {"class_name": "Zeros", "config": {"dtype": "float32"}}, "kernel_regularizer": null, "bias_regularizer": null, "activity_regularizer": null, "kernel_constraint": null, "bias_constraint": null}, "inbound_nodes": [[["conv4_block9_1_relu", 0, 0, {}]]]}, {"name": "conv4_block9_concat", "class_name": "Concatenate", "config": {"name": "conv4_block9_concat", "trainable": true, "dtype": "float32", "axis": 3}, "inbound_nodes": [[["conv4_block8_concat", 0, 0, {}], ["conv4_block9_2_conv", 0, 0, {}]]]}, {"name": "conv4_block10_0_bn", "class_name": "BatchNormalization", "config": {"name": "conv4_block10_0_bn", "trainable": true, "dtype": "float32", "axis": [3], "momentum": 0.99, "epsilon": 1.001e-05, "center": true, "scale": true, "beta_initializer": {"class_name": "Zeros", "config": {"dtype": "float32"}}, "gamma_initializer": {"class_name": "Ones", "config": {"dtype": "float32"}}, "moving_mean_initializer": {"class_name": "Zeros", "config": {"dtype": "float32"}}, "moving_variance_initializer": {"class_name": "Ones", "config": {"dtype": "float32"}}, "beta_regularizer": null, "gamma_regularizer": null, "beta_constraint": null, "gamma_constraint": null}, "inbound_nodes": [[["conv4_block9_concat", 0, 0, {}]]]}, {"name": "conv4_block10_0_relu", "class_name": "Activation", "config": {"name": "conv4_block10_0_relu", "trainable": true, "dtype": "float32", "activation": "relu"}, "inbound_nodes": [[["conv4_block10_0_bn", 0, 0, {}]]]}, {"name": "conv4_block10_1_conv", "class_name": "Conv2D", "config": {"name": "conv4_block10_1_conv", "trainable": true, "dtype": "float32", "filters": 128, "kernel_size": [1, 1], "strides": [1, 1], "padding": "valid", "data_format": "channels_last", "dilation_rate": [1, 1], "activation": "linear", "use_bias": false, "kernel_initializer": {"class_name": "VarianceScaling", "config": {"scale": 1.0, "mode": "fan_avg", "distribution": "uniform", "seed": null, "dtype": "float32"}}, "bias_initializer": {"class_name": "Zeros", "config": {"dtype": "float32"}}, "kernel_regularizer": null, "bias_regularizer": null, "activity_regularizer": null, "kernel_constraint": null, "bias_constraint": null}, "inbound_nodes": [[["conv4_block10_0_relu", 0, 0, {}]]]}, {"name": "conv4_block10_1_bn", "class_name": "BatchNormalization", "config": {"name": "conv4_block10_1_bn", "trainable": true, "dtype": "float32", "axis": [3], "momentum": 0.99, "epsilon": 1.001e-05, "center": true, "scale": true, "beta_initializer": {"class_name": "Zeros", "config": {"dtype": "float32"}}, "gamma_initializer": {"class_name": "Ones", "config": {"dtype": "float32"}}, "moving_mean_initializer": {"class_name": "Zeros", "config": {"dtype": "float32"}}, "moving_variance_initializer": {"class_name": "Ones", "config": {"dtype": "float32"}}, "beta_regularizer": null, "gamma_regularizer": null, "beta_constraint": null, "gamma_constraint": null}, "inbound_nodes": [[["conv4_block10_1_conv", 0, 0, {}]]]}, {"name": "conv4_block10_1_relu", "class_name": "Activation", "config": {"name": "conv4_block10_1_relu", "trainable": true, "dtype": "float32", "activation": "relu"}, "inbound_nodes": [[["conv4_block10_1_bn", 0, 0, {}]]]}, {"name": "conv4_block10_2_conv", "class_name": "Conv2D", "config": {"name": "conv4_block10_2_conv", "trainable": true, "dtype": "float32", "filters": 32, "kernel_size": [3, 3], "strides": [1, 1], "padding": "same", "data_format": "channels_last", "dilation_rate": [1, 1], "activation": "linear", "use_bias": false, "kernel_initializer": {"class_name": "VarianceScaling", "config": {"scale": 1.0, "mode": "fan_avg", "distribution": "uniform", "seed": null, "dtype": "float32"}}, "bias_initializer": {"class_name": "Zeros", "config": {"dtype": "float32"}}, "kernel_regularizer": null, "bias_regularizer": null, "activity_regularizer": null, "kernel_constraint": null, "bias_constraint": null}, "inbound_nodes": [[["conv4_block10_1_relu", 0, 0, {}]]]}, {"name": "conv4_block10_concat", "class_name": "Concatenate", "config": {"name": "conv4_block10_concat", "trainable": true, "dtype": "float32", "axis": 3}, "inbound_nodes": [[["conv4_block9_concat", 0, 0, {}], ["conv4_block10_2_conv", 0, 0, {}]]]}, {"name": "conv4_block11_0_bn", "class_name": "BatchNormalization", "config": {"name": "conv4_block11_0_bn", "trainable": true, "dtype": "float32", "axis": [3], "momentum": 0.99, "epsilon": 1.001e-05, "center": true, "scale": true, "beta_initializer": {"class_name": "Zeros", "config": {"dtype": "float32"}}, "gamma_initializer": {"class_name": "Ones", "config": {"dtype": "float32"}}, "moving_mean_initializer": {"class_name": "Zeros", "config": {"dtype": "float32"}}, "moving_variance_initializer": {"class_name": "Ones", "config": {"dtype": "float32"}}, "beta_regularizer": null, "gamma_regularizer": null, "beta_constraint": null, "gamma_constraint": null}, "inbound_nodes": [[["conv4_block10_concat", 0, 0, {}]]]}, {"name": "conv4_block11_0_relu", "class_name": "Activation", "config": {"name": "conv4_block11_0_relu", "trainable": true, "dtype": "float32", "activation": "relu"}, "inbound_nodes": [[["conv4_block11_0_bn", 0, 0, {}]]]}, {"name": "conv4_block11_1_conv", "class_name": "Conv2D", "config": {"name": "conv4_block11_1_conv", "trainable": true, "dtype": "float32", "filters": 128, "kernel_size": [1, 1], "strides": [1, 1], "padding": "valid", "data_format": "channels_last", "dilation_rate": [1, 1], "activation": "linear", "use_bias": false, "kernel_initializer": {"class_name": "VarianceScaling", "config": {"scale": 1.0, "mode": "fan_avg", "distribution": "uniform", "seed": null, "dtype": "float32"}}, "bias_initializer": {"class_name": "Zeros", "config": {"dtype": "float32"}}, "kernel_regularizer": null, "bias_regularizer": null, "activity_regularizer": null, "kernel_constraint": null, "bias_constraint": null}, "inbound_nodes": [[["conv4_block11_0_relu", 0, 0, {}]]]}, {"name": "conv4_block11_1_bn", "class_name": "BatchNormalization", "config": {"name": "conv4_block11_1_bn", "trainable": true, "dtype": "float32", "axis": [3], "momentum": 0.99, "epsilon": 1.001e-05, "center": true, "scale": true, "beta_initializer": {"class_name": "Zeros", "config": {"dtype": "float32"}}, "gamma_initializer": {"class_name": "Ones", "config": {"dtype": "float32"}}, "moving_mean_initializer": {"class_name": "Zeros", "config": {"dtype": "float32"}}, "moving_variance_initializer": {"class_name": "Ones", "config": {"dtype": "float32"}}, "beta_regularizer": null, "gamma_regularizer": null, "beta_constraint": null, "gamma_constraint": null}, "inbound_nodes": [[["conv4_block11_1_conv", 0, 0, {}]]]}, {"name": "conv4_block11_1_relu", "class_name": "Activation", "config": {"name": "conv4_block11_1_relu", "trainable": true, "dtype": "float32", "activation": "relu"}, "inbound_nodes": [[["conv4_block11_1_bn", 0, 0, {}]]]}, {"name": "conv4_block11_2_conv", "class_name": "Conv2D", "config": {"name": "conv4_block11_2_conv", "trainable": true, "dtype": "float32", "filters": 32, "kernel_size": [3, 3], "strides": [1, 1], "padding": "same", "data_format": "channels_last", "dilation_rate": [1, 1], "activation": "linear", "use_bias": false, "kernel_initializer": {"class_name": "VarianceScaling", "config": {"scale": 1.0, "mode": "fan_avg", "distribution": "uniform", "seed": null, "dtype": "float32"}}, "bias_initializer": {"class_name": "Zeros", "config": {"dtype": "float32"}}, "kernel_regularizer": null, "bias_regularizer": null, "activity_regularizer": null, "kernel_constraint": null, "bias_constraint": null}, "inbound_nodes": [[["conv4_block11_1_relu", 0, 0, {}]]]}, {"name": "conv4_block11_concat", "class_name": "Concatenate", "config": {"name": "conv4_block11_concat", "trainable": true, "dtype": "float32", "axis": 3}, "inbound_nodes": [[["conv4_block10_concat", 0, 0, {}], ["conv4_block11_2_conv", 0, 0, {}]]]}, {"name": "conv4_block12_0_bn", "class_name": "BatchNormalization", "config": {"name": "conv4_block12_0_bn", "trainable": true, "dtype": "float32", "axis": [3], "momentum": 0.99, "epsilon": 1.001e-05, "center": true, "scale": true, "beta_initializer": {"class_name": "Zeros", "config": {"dtype": "float32"}}, "gamma_initializer": {"class_name": "Ones", "config": {"dtype": "float32"}}, "moving_mean_initializer": {"class_name": "Zeros", "config": {"dtype": "float32"}}, "moving_variance_initializer": {"class_name": "Ones", "config": {"dtype": "float32"}}, "beta_regularizer": null, "gamma_regularizer": null, "beta_constraint": null, "gamma_constraint": null}, "inbound_nodes": [[["conv4_block11_concat", 0, 0, {}]]]}, {"name": "conv4_block12_0_relu", "class_name": "Activation", "config": {"name": "conv4_block12_0_relu", "trainable": true, "dtype": "float32", "activation": "relu"}, "inbound_nodes": [[["conv4_block12_0_bn", 0, 0, {}]]]}, {"name": "conv4_block12_1_conv", "class_name": "Conv2D", "config": {"name": "conv4_block12_1_conv", "trainable": true, "dtype": "float32", "filters": 128, "kernel_size": [1, 1], "strides": [1, 1], "padding": "valid", "data_format": "channels_last", "dilation_rate": [1, 1], "activation": "linear", "use_bias": false, "kernel_initializer": {"class_name": "VarianceScaling", "config": {"scale": 1.0, "mode": "fan_avg", "distribution": "uniform", "seed": null, "dtype": "float32"}}, "bias_initializer": {"class_name": "Zeros", "config": {"dtype": "float32"}}, "kernel_regularizer": null, "bias_regularizer": null, "activity_regularizer": null, "kernel_constraint": null, "bias_constraint": null}, "inbound_nodes": [[["conv4_block12_0_relu", 0, 0, {}]]]}, {"name": "conv4_block12_1_bn", "class_name": "BatchNormalization", "config": {"name": "conv4_block12_1_bn", "trainable": true, "dtype": "float32", "axis": [3], "momentum": 0.99, "epsilon": 1.001e-05, "center": true, "scale": true, "beta_initializer": {"class_name": "Zeros", "config": {"dtype": "float32"}}, "gamma_initializer": {"class_name": "Ones", "config": {"dtype": "float32"}}, "moving_mean_initializer": {"class_name": "Zeros", "config": {"dtype": "float32"}}, "moving_variance_initializer": {"class_name": "Ones", "config": {"dtype": "float32"}}, "beta_regularizer": null, "gamma_regularizer": null, "beta_constraint": null, "gamma_constraint": null}, "inbound_nodes": [[["conv4_block12_1_conv", 0, 0, {}]]]}, {"name": "conv4_block12_1_relu", "class_name": "Activation", "config": {"name": "conv4_block12_1_relu", "trainable": true, "dtype": "float32", "activation": "relu"}, "inbound_nodes": [[["conv4_block12_1_bn", 0, 0, {}]]]}, {"name": "conv4_block12_2_conv", "class_name": "Conv2D", "config": {"name": "conv4_block12_2_conv", "trainable": true, "dtype": "float32", "filters": 32, "kernel_size": [3, 3], "strides": [1, 1], "padding": "same", "data_format": "channels_last", "dilation_rate": [1, 1], "activation": "linear", "use_bias": false, "kernel_initializer": {"class_name": "VarianceScaling", "config": {"scale": 1.0, "mode": "fan_avg", "distribution": "uniform", "seed": null, "dtype": "float32"}}, "bias_initializer": {"class_name": "Zeros", "config": {"dtype": "float32"}}, "kernel_regularizer": null, "bias_regularizer": null, "activity_regularizer": null, "kernel_constraint": null, "bias_constraint": null}, "inbound_nodes": [[["conv4_block12_1_relu", 0, 0, {}]]]}, {"name": "conv4_block12_concat", "class_name": "Concatenate", "config": {"name": "conv4_block12_concat", "trainable": true, "dtype": "float32", "axis": 3}, "inbound_nodes": [[["conv4_block11_concat", 0, 0, {}], ["conv4_block12_2_conv", 0, 0, {}]]]}, {"name": "conv4_block13_0_bn", "class_name": "BatchNormalization", "config": {"name": "conv4_block13_0_bn", "trainable": true, "dtype": "float32", "axis": [3], "momentum": 0.99, "epsilon": 1.001e-05, "center": true, "scale": true, "beta_initializer": {"class_name": "Zeros", "config": {"dtype": "float32"}}, "gamma_initializer": {"class_name": "Ones", "config": {"dtype": "float32"}}, "moving_mean_initializer": {"class_name": "Zeros", "config": {"dtype": "float32"}}, "moving_variance_initializer": {"class_name": "Ones", "config": {"dtype": "float32"}}, "beta_regularizer": null, "gamma_regularizer": null, "beta_constraint": null, "gamma_constraint": null}, "inbound_nodes": [[["conv4_block12_concat", 0, 0, {}]]]}, {"name": "conv4_block13_0_relu", "class_name": "Activation", "config": {"name": "conv4_block13_0_relu", "trainable": true, "dtype": "float32", "activation": "relu"}, "inbound_nodes": [[["conv4_block13_0_bn", 0, 0, {}]]]}, {"name": "conv4_block13_1_conv", "class_name": "Conv2D", "config": {"name": "conv4_block13_1_conv", "trainable": true, "dtype": "float32", "filters": 128, "kernel_size": [1, 1], "strides": [1, 1], "padding": "valid", "data_format": "channels_last", "dilation_rate": [1, 1], "activation": "linear", "use_bias": false, "kernel_initializer": {"class_name": "VarianceScaling", "config": {"scale": 1.0, "mode": "fan_avg", "distribution": "uniform", "seed": null, "dtype": "float32"}}, "bias_initializer": {"class_name": "Zeros", "config": {"dtype": "float32"}}, "kernel_regularizer": null, "bias_regularizer": null, "activity_regularizer": null, "kernel_constraint": null, "bias_constraint": null}, "inbound_nodes": [[["conv4_block13_0_relu", 0, 0, {}]]]}, {"name": "conv4_block13_1_bn", "class_name": "BatchNormalization", "config": {"name": "conv4_block13_1_bn", "trainable": true, "dtype": "float32", "axis": [3], "momentum": 0.99, "epsilon": 1.001e-05, "center": true, "scale": true, "beta_initializer": {"class_name": "Zeros", "config": {"dtype": "float32"}}, "gamma_initializer": {"class_name": "Ones", "config": {"dtype": "float32"}}, "moving_mean_initializer": {"class_name": "Zeros", "config": {"dtype": "float32"}}, "moving_variance_initializer": {"class_name": "Ones", "config": {"dtype": "float32"}}, "beta_regularizer": null, "gamma_regularizer": null, "beta_constraint": null, "gamma_constraint": null}, "inbound_nodes": [[["conv4_block13_1_conv", 0, 0, {}]]]}, {"name": "conv4_block13_1_relu", "class_name": "Activation", "config": {"name": "conv4_block13_1_relu", "trainable": true, "dtype": "float32", "activation": "relu"}, "inbound_nodes": [[["conv4_block13_1_bn", 0, 0, {}]]]}, {"name": "conv4_block13_2_conv", "class_name": "Conv2D", "config": {"name": "conv4_block13_2_conv", "trainable": true, "dtype": "float32", "filters": 32, "kernel_size": [3, 3], "strides": [1, 1], "padding": "same", "data_format": "channels_last", "dilation_rate": [1, 1], "activation": "linear", "use_bias": false, "kernel_initializer": {"class_name": "VarianceScaling", "config": {"scale": 1.0, "mode": "fan_avg", "distribution": "uniform", "seed": null, "dtype": "float32"}}, "bias_initializer": {"class_name": "Zeros", "config": {"dtype": "float32"}}, "kernel_regularizer": null, "bias_regularizer": null, "activity_regularizer": null, "kernel_constraint": null, "bias_constraint": null}, "inbound_nodes": [[["conv4_block13_1_relu", 0, 0, {}]]]}, {"name": "conv4_block13_concat", "class_name": "Concatenate", "config": {"name": "conv4_block13_concat", "trainable": true, "dtype": "float32", "axis": 3}, "inbound_nodes": [[["conv4_block12_concat", 0, 0, {}], ["conv4_block13_2_conv", 0, 0, {}]]]}, {"name": "conv4_block14_0_bn", "class_name": "BatchNormalization", "config": {"name": "conv4_block14_0_bn", "trainable": true, "dtype": "float32", "axis": [3], "momentum": 0.99, "epsilon": 1.001e-05, "center": true, "scale": true, "beta_initializer": {"class_name": "Zeros", "config": {"dtype": "float32"}}, "gamma_initializer": {"class_name": "Ones", "config": {"dtype": "float32"}}, "moving_mean_initializer": {"class_name": "Zeros", "config": {"dtype": "float32"}}, "moving_variance_initializer": {"class_name": "Ones", "config": {"dtype": "float32"}}, "beta_regularizer": null, "gamma_regularizer": null, "beta_constraint": null, "gamma_constraint": null}, "inbound_nodes": [[["conv4_block13_concat", 0, 0, {}]]]}, {"name": "conv4_block14_0_relu", "class_name": "Activation", "config": {"name": "conv4_block14_0_relu", "trainable": true, "dtype": "float32", "activation": "relu"}, "inbound_nodes": [[["conv4_block14_0_bn", 0, 0, {}]]]}, {"name": "conv4_block14_1_conv", "class_name": "Conv2D", "config": {"name": "conv4_block14_1_conv", "trainable": true, "dtype": "float32", "filters": 128, "kernel_size": [1, 1], "strides": [1, 1], "padding": "valid", "data_format": "channels_last", "dilation_rate": [1, 1], "activation": "linear", "use_bias": false, "kernel_initializer": {"class_name": "VarianceScaling", "config": {"scale": 1.0, "mode": "fan_avg", "distribution": "uniform", "seed": null, "dtype": "float32"}}, "bias_initializer": {"class_name": "Zeros", "config": {"dtype": "float32"}}, "kernel_regularizer": null, "bias_regularizer": null, "activity_regularizer": null, "kernel_constraint": null, "bias_constraint": null}, "inbound_nodes": [[["conv4_block14_0_relu", 0, 0, {}]]]}, {"name": "conv4_block14_1_bn", "class_name": "BatchNormalization", "config": {"name": "conv4_block14_1_bn", "trainable": true, "dtype": "float32", "axis": [3], "momentum": 0.99, "epsilon": 1.001e-05, "center": true, "scale": true, "beta_initializer": {"class_name": "Zeros", "config": {"dtype": "float32"}}, "gamma_initializer": {"class_name": "Ones", "config": {"dtype": "float32"}}, "moving_mean_initializer": {"class_name": "Zeros", "config": {"dtype": "float32"}}, "moving_variance_initializer": {"class_name": "Ones", "config": {"dtype": "float32"}}, "beta_regularizer": null, "gamma_regularizer": null, "beta_constraint": null, "gamma_constraint": null}, "inbound_nodes": [[["conv4_block14_1_conv", 0, 0, {}]]]}, {"name": "conv4_block14_1_relu", "class_name": "Activation", "config": {"name": "conv4_block14_1_relu", "trainable": true, "dtype": "float32", "activation": "relu"}, "inbound_nodes": [[["conv4_block14_1_bn", 0, 0, {}]]]}, {"name": "conv4_block14_2_conv", "class_name": "Conv2D", "config": {"name": "conv4_block14_2_conv", "trainable": true, "dtype": "float32", "filters": 32, "kernel_size": [3, 3], "strides": [1, 1], "padding": "same", "data_format": "channels_last", "dilation_rate": [1, 1], "activation": "linear", "use_bias": false, "kernel_initializer": {"class_name": "VarianceScaling", "config": {"scale": 1.0, "mode": "fan_avg", "distribution": "uniform", "seed": null, "dtype": "float32"}}, "bias_initializer": {"class_name": "Zeros", "config": {"dtype": "float32"}}, "kernel_regularizer": null, "bias_regularizer": null, "activity_regularizer": null, "kernel_constraint": null, "bias_constraint": null}, "inbound_nodes": [[["conv4_block14_1_relu", 0, 0, {}]]]}, {"name": "conv4_block14_concat", "class_name": "Concatenate", "config": {"name": "conv4_block14_concat", "trainable": true, "dtype": "float32", "axis": 3}, "inbound_nodes": [[["conv4_block13_concat", 0, 0, {}], ["conv4_block14_2_conv", 0, 0, {}]]]}, {"name": "conv4_block15_0_bn", "class_name": "BatchNormalization", "config": {"name": "conv4_block15_0_bn", "trainable": true, "dtype": "float32", "axis": [3], "momentum": 0.99, "epsilon": 1.001e-05, "center": true, "scale": true, "beta_initializer": {"class_name": "Zeros", "config": {"dtype": "float32"}}, "gamma_initializer": {"class_name": "Ones", "config": {"dtype": "float32"}}, "moving_mean_initializer": {"class_name": "Zeros", "config": {"dtype": "float32"}}, "moving_variance_initializer": {"class_name": "Ones", "config": {"dtype": "float32"}}, "beta_regularizer": null, "gamma_regularizer": null, "beta_constraint": null, "gamma_constraint": null}, "inbound_nodes": [[["conv4_block14_concat", 0, 0, {}]]]}, {"name": "conv4_block15_0_relu", "class_name": "Activation", "config": {"name": "conv4_block15_0_relu", "trainable": true, "dtype": "float32", "activation": "relu"}, "inbound_nodes": [[["conv4_block15_0_bn", 0, 0, {}]]]}, {"name": "conv4_block15_1_conv", "class_name": "Conv2D", "config": {"name": "conv4_block15_1_conv", "trainable": true, "dtype": "float32", "filters": 128, "kernel_size": [1, 1], "strides": [1, 1], "padding": "valid", "data_format": "channels_last", "dilation_rate": [1, 1], "activation": "linear", "use_bias": false, "kernel_initializer": {"class_name": "VarianceScaling", "config": {"scale": 1.0, "mode": "fan_avg", "distribution": "uniform", "seed": null, "dtype": "float32"}}, "bias_initializer": {"class_name": "Zeros", "config": {"dtype": "float32"}}, "kernel_regularizer": null, "bias_regularizer": null, "activity_regularizer": null, "kernel_constraint": null, "bias_constraint": null}, "inbound_nodes": [[["conv4_block15_0_relu", 0, 0, {}]]]}, {"name": "conv4_block15_1_bn", "class_name": "BatchNormalization", "config": {"name": "conv4_block15_1_bn", "trainable": true, "dtype": "float32", "axis": [3], "momentum": 0.99, "epsilon": 1.001e-05, "center": true, "scale": true, "beta_initializer": {"class_name": "Zeros", "config": {"dtype": "float32"}}, "gamma_initializer": {"class_name": "Ones", "config": {"dtype": "float32"}}, "moving_mean_initializer": {"class_name": "Zeros", "config": {"dtype": "float32"}}, "moving_variance_initializer": {"class_name": "Ones", "config": {"dtype": "float32"}}, "beta_regularizer": null, "gamma_regularizer": null, "beta_constraint": null, "gamma_constraint": null}, "inbound_nodes": [[["conv4_block15_1_conv", 0, 0, {}]]]}, {"name": "conv4_block15_1_relu", "class_name": "Activation", "config": {"name": "conv4_block15_1_relu", "trainable": true, "dtype": "float32", "activation": "relu"}, "inbound_nodes": [[["conv4_block15_1_bn", 0, 0, {}]]]}, {"name": "conv4_block15_2_conv", "class_name": "Conv2D", "config": {"name": "conv4_block15_2_conv", "trainable": true, "dtype": "float32", "filters": 32, "kernel_size": [3, 3], "strides": [1, 1], "padding": "same", "data_format": "channels_last", "dilation_rate": [1, 1], "activation": "linear", "use_bias": false, "kernel_initializer": {"class_name": "VarianceScaling", "config": {"scale": 1.0, "mode": "fan_avg", "distribution": "uniform", "seed": null, "dtype": "float32"}}, "bias_initializer": {"class_name": "Zeros", "config": {"dtype": "float32"}}, "kernel_regularizer": null, "bias_regularizer": null, "activity_regularizer": null, "kernel_constraint": null, "bias_constraint": null}, "inbound_nodes": [[["conv4_block15_1_relu", 0, 0, {}]]]}, {"name": "conv4_block15_concat", "class_name": "Concatenate", "config": {"name": "conv4_block15_concat", "trainable": true, "dtype": "float32", "axis": 3}, "inbound_nodes": [[["conv4_block14_concat", 0, 0, {}], ["conv4_block15_2_conv", 0, 0, {}]]]}, {"name": "conv4_block16_0_bn", "class_name": "BatchNormalization", "config": {"name": "conv4_block16_0_bn", "trainable": true, "dtype": "float32", "axis": [3], "momentum": 0.99, "epsilon": 1.001e-05, "center": true, "scale": true, "beta_initializer": {"class_name": "Zeros", "config": {"dtype": "float32"}}, "gamma_initializer": {"class_name": "Ones", "config": {"dtype": "float32"}}, "moving_mean_initializer": {"class_name": "Zeros", "config": {"dtype": "float32"}}, "moving_variance_initializer": {"class_name": "Ones", "config": {"dtype": "float32"}}, "beta_regularizer": null, "gamma_regularizer": null, "beta_constraint": null, "gamma_constraint": null}, "inbound_nodes": [[["conv4_block15_concat", 0, 0, {}]]]}, {"name": "conv4_block16_0_relu", "class_name": "Activation", "config": {"name": "conv4_block16_0_relu", "trainable": true, "dtype": "float32", "activation": "relu"}, "inbound_nodes": [[["conv4_block16_0_bn", 0, 0, {}]]]}, {"name": "conv4_block16_1_conv", "class_name": "Conv2D", "config": {"name": "conv4_block16_1_conv", "trainable": true, "dtype": "float32", "filters": 128, "kernel_size": [1, 1], "strides": [1, 1], "padding": "valid", "data_format": "channels_last", "dilation_rate": [1, 1], "activation": "linear", "use_bias": false, "kernel_initializer": {"class_name": "VarianceScaling", "config": {"scale": 1.0, "mode": "fan_avg", "distribution": "uniform", "seed": null, "dtype": "float32"}}, "bias_initializer": {"class_name": "Zeros", "config": {"dtype": "float32"}}, "kernel_regularizer": null, "bias_regularizer": null, "activity_regularizer": null, "kernel_constraint": null, "bias_constraint": null}, "inbound_nodes": [[["conv4_block16_0_relu", 0, 0, {}]]]}, {"name": "conv4_block16_1_bn", "class_name": "BatchNormalization", "config": {"name": "conv4_block16_1_bn", "trainable": true, "dtype": "float32", "axis": [3], "momentum": 0.99, "epsilon": 1.001e-05, "center": true, "scale": true, "beta_initializer": {"class_name": "Zeros", "config": {"dtype": "float32"}}, "gamma_initializer": {"class_name": "Ones", "config": {"dtype": "float32"}}, "moving_mean_initializer": {"class_name": "Zeros", "config": {"dtype": "float32"}}, "moving_variance_initializer": {"class_name": "Ones", "config": {"dtype": "float32"}}, "beta_regularizer": null, "gamma_regularizer": null, "beta_constraint": null, "gamma_constraint": null}, "inbound_nodes": [[["conv4_block16_1_conv", 0, 0, {}]]]}, {"name": "conv4_block16_1_relu", "class_name": "Activation", "config": {"name": "conv4_block16_1_relu", "trainable": true, "dtype": "float32", "activation": "relu"}, "inbound_nodes": [[["conv4_block16_1_bn", 0, 0, {}]]]}, {"name": "conv4_block16_2_conv", "class_name": "Conv2D", "config": {"name": "conv4_block16_2_conv", "trainable": true, "dtype": "float32", "filters": 32, "kernel_size": [3, 3], "strides": [1, 1], "padding": "same", "data_format": "channels_last", "dilation_rate": [1, 1], "activation": "linear", "use_bias": false, "kernel_initializer": {"class_name": "VarianceScaling", "config": {"scale": 1.0, "mode": "fan_avg", "distribution": "uniform", "seed": null, "dtype": "float32"}}, "bias_initializer": {"class_name": "Zeros", "config": {"dtype": "float32"}}, "kernel_regularizer": null, "bias_regularizer": null, "activity_regularizer": null, "kernel_constraint": null, "bias_constraint": null}, "inbound_nodes": [[["conv4_block16_1_relu", 0, 0, {}]]]}, {"name": "conv4_block16_concat", "class_name": "Concatenate", "config": {"name": "conv4_block16_concat", "trainable": true, "dtype": "float32", "axis": 3}, "inbound_nodes": [[["conv4_block15_concat", 0, 0, {}], ["conv4_block16_2_conv", 0, 0, {}]]]}, {"name": "conv4_block17_0_bn", "class_name": "BatchNormalization", "config": {"name": "conv4_block17_0_bn", "trainable": true, "dtype": "float32", "axis": [3], "momentum": 0.99, "epsilon": 1.001e-05, "center": true, "scale": true, "beta_initializer": {"class_name": "Zeros", "config": {"dtype": "float32"}}, "gamma_initializer": {"class_name": "Ones", "config": {"dtype": "float32"}}, "moving_mean_initializer": {"class_name": "Zeros", "config": {"dtype": "float32"}}, "moving_variance_initializer": {"class_name": "Ones", "config": {"dtype": "float32"}}, "beta_regularizer": null, "gamma_regularizer": null, "beta_constraint": null, "gamma_constraint": null}, "inbound_nodes": [[["conv4_block16_concat", 0, 0, {}]]]}, {"name": "conv4_block17_0_relu", "class_name": "Activation", "config": {"name": "conv4_block17_0_relu", "trainable": true, "dtype": "float32", "activation": "relu"}, "inbound_nodes": [[["conv4_block17_0_bn", 0, 0, {}]]]}, {"name": "conv4_block17_1_conv", "class_name": "Conv2D", "config": {"name": "conv4_block17_1_conv", "trainable": true, "dtype": "float32", "filters": 128, "kernel_size": [1, 1], "strides": [1, 1], "padding": "valid", "data_format": "channels_last", "dilation_rate": [1, 1], "activation": "linear", "use_bias": false, "kernel_initializer": {"class_name": "VarianceScaling", "config": {"scale": 1.0, "mode": "fan_avg", "distribution": "uniform", "seed": null, "dtype": "float32"}}, "bias_initializer": {"class_name": "Zeros", "config": {"dtype": "float32"}}, "kernel_regularizer": null, "bias_regularizer": null, "activity_regularizer": null, "kernel_constraint": null, "bias_constraint": null}, "inbound_nodes": [[["conv4_block17_0_relu", 0, 0, {}]]]}, {"name": "conv4_block17_1_bn", "class_name": "BatchNormalization", "config": {"name": "conv4_block17_1_bn", "trainable": true, "dtype": "float32", "axis": [3], "momentum": 0.99, "epsilon": 1.001e-05, "center": true, "scale": true, "beta_initializer": {"class_name": "Zeros", "config": {"dtype": "float32"}}, "gamma_initializer": {"class_name": "Ones", "config": {"dtype": "float32"}}, "moving_mean_initializer": {"class_name": "Zeros", "config": {"dtype": "float32"}}, "moving_variance_initializer": {"class_name": "Ones", "config": {"dtype": "float32"}}, "beta_regularizer": null, "gamma_regularizer": null, "beta_constraint": null, "gamma_constraint": null}, "inbound_nodes": [[["conv4_block17_1_conv", 0, 0, {}]]]}, {"name": "conv4_block17_1_relu", "class_name": "Activation", "config": {"name": "conv4_block17_1_relu", "trainable": true, "dtype": "float32", "activation": "relu"}, "inbound_nodes": [[["conv4_block17_1_bn", 0, 0, {}]]]}, {"name": "conv4_block17_2_conv", "class_name": "Conv2D", "config": {"name": "conv4_block17_2_conv", "trainable": true, "dtype": "float32", "filters": 32, "kernel_size": [3, 3], "strides": [1, 1], "padding": "same", "data_format": "channels_last", "dilation_rate": [1, 1], "activation": "linear", "use_bias": false, "kernel_initializer": {"class_name": "VarianceScaling", "config": {"scale": 1.0, "mode": "fan_avg", "distribution": "uniform", "seed": null, "dtype": "float32"}}, "bias_initializer": {"class_name": "Zeros", "config": {"dtype": "float32"}}, "kernel_regularizer": null, "bias_regularizer": null, "activity_regularizer": null, "kernel_constraint": null, "bias_constraint": null}, "inbound_nodes": [[["conv4_block17_1_relu", 0, 0, {}]]]}, {"name": "conv4_block17_concat", "class_name": "Concatenate", "config": {"name": "conv4_block17_concat", "trainable": true, "dtype": "float32", "axis": 3}, "inbound_nodes": [[["conv4_block16_concat", 0, 0, {}], ["conv4_block17_2_conv", 0, 0, {}]]]}, {"name": "conv4_block18_0_bn", "class_name": "BatchNormalization", "config": {"name": "conv4_block18_0_bn", "trainable": true, "dtype": "float32", "axis": [3], "momentum": 0.99, "epsilon": 1.001e-05, "center": true, "scale": true, "beta_initializer": {"class_name": "Zeros", "config": {"dtype": "float32"}}, "gamma_initializer": {"class_name": "Ones", "config": {"dtype": "float32"}}, "moving_mean_initializer": {"class_name": "Zeros", "config": {"dtype": "float32"}}, "moving_variance_initializer": {"class_name": "Ones", "config": {"dtype": "float32"}}, "beta_regularizer": null, "gamma_regularizer": null, "beta_constraint": null, "gamma_constraint": null}, "inbound_nodes": [[["conv4_block17_concat", 0, 0, {}]]]}, {"name": "conv4_block18_0_relu", "class_name": "Activation", "config": {"name": "conv4_block18_0_relu", "trainable": true, "dtype": "float32", "activation": "relu"}, "inbound_nodes": [[["conv4_block18_0_bn", 0, 0, {}]]]}, {"name": "conv4_block18_1_conv", "class_name": "Conv2D", "config": {"name": "conv4_block18_1_conv", "trainable": true, "dtype": "float32", "filters": 128, "kernel_size": [1, 1], "strides": [1, 1], "padding": "valid", "data_format": "channels_last", "dilation_rate": [1, 1], "activation": "linear", "use_bias": false, "kernel_initializer": {"class_name": "VarianceScaling", "config": {"scale": 1.0, "mode": "fan_avg", "distribution": "uniform", "seed": null, "dtype": "float32"}}, "bias_initializer": {"class_name": "Zeros", "config": {"dtype": "float32"}}, "kernel_regularizer": null, "bias_regularizer": null, "activity_regularizer": null, "kernel_constraint": null, "bias_constraint": null}, "inbound_nodes": [[["conv4_block18_0_relu", 0, 0, {}]]]}, {"name": "conv4_block18_1_bn", "class_name": "BatchNormalization", "config": {"name": "conv4_block18_1_bn", "trainable": true, "dtype": "float32", "axis": [3], "momentum": 0.99, "epsilon": 1.001e-05, "center": true, "scale": true, "beta_initializer": {"class_name": "Zeros", "config": {"dtype": "float32"}}, "gamma_initializer": {"class_name": "Ones", "config": {"dtype": "float32"}}, "moving_mean_initializer": {"class_name": "Zeros", "config": {"dtype": "float32"}}, "moving_variance_initializer": {"class_name": "Ones", "config": {"dtype": "float32"}}, "beta_regularizer": null, "gamma_regularizer": null, "beta_constraint": null, "gamma_constraint": null}, "inbound_nodes": [[["conv4_block18_1_conv", 0, 0, {}]]]}, {"name": "conv4_block18_1_relu", "class_name": "Activation", "config": {"name": "conv4_block18_1_relu", "trainable": true, "dtype": "float32", "activation": "relu"}, "inbound_nodes": [[["conv4_block18_1_bn", 0, 0, {}]]]}, {"name": "conv4_block18_2_conv", "class_name": "Conv2D", "config": {"name": "conv4_block18_2_conv", "trainable": true, "dtype": "float32", "filters": 32, "kernel_size": [3, 3], "strides": [1, 1], "padding": "same", "data_format": "channels_last", "dilation_rate": [1, 1], "activation": "linear", "use_bias": false, "kernel_initializer": {"class_name": "VarianceScaling", "config": {"scale": 1.0, "mode": "fan_avg", "distribution": "uniform", "seed": null, "dtype": "float32"}}, "bias_initializer": {"class_name": "Zeros", "config": {"dtype": "float32"}}, "kernel_regularizer": null, "bias_regularizer": null, "activity_regularizer": null, "kernel_constraint": null, "bias_constraint": null}, "inbound_nodes": [[["conv4_block18_1_relu", 0, 0, {}]]]}, {"name": "conv4_block18_concat", "class_name": "Concatenate", "config": {"name": "conv4_block18_concat", "trainable": true, "dtype": "float32", "axis": 3}, "inbound_nodes": [[["conv4_block17_concat", 0, 0, {}], ["conv4_block18_2_conv", 0, 0, {}]]]}, {"name": "conv4_block19_0_bn", "class_name": "BatchNormalization", "config": {"name": "conv4_block19_0_bn", "trainable": true, "dtype": "float32", "axis": [3], "momentum": 0.99, "epsilon": 1.001e-05, "center": true, "scale": true, "beta_initializer": {"class_name": "Zeros", "config": {"dtype": "float32"}}, "gamma_initializer": {"class_name": "Ones", "config": {"dtype": "float32"}}, "moving_mean_initializer": {"class_name": "Zeros", "config": {"dtype": "float32"}}, "moving_variance_initializer": {"class_name": "Ones", "config": {"dtype": "float32"}}, "beta_regularizer": null, "gamma_regularizer": null, "beta_constraint": null, "gamma_constraint": null}, "inbound_nodes": [[["conv4_block18_concat", 0, 0, {}]]]}, {"name": "conv4_block19_0_relu", "class_name": "Activation", "config": {"name": "conv4_block19_0_relu", "trainable": true, "dtype": "float32", "activation": "relu"}, "inbound_nodes": [[["conv4_block19_0_bn", 0, 0, {}]]]}, {"name": "conv4_block19_1_conv", "class_name": "Conv2D", "config": {"name": "conv4_block19_1_conv", "trainable": true, "dtype": "float32", "filters": 128, "kernel_size": [1, 1], "strides": [1, 1], "padding": "valid", "data_format": "channels_last", "dilation_rate": [1, 1], "activation": "linear", "use_bias": false, "kernel_initializer": {"class_name": "VarianceScaling", "config": {"scale": 1.0, "mode": "fan_avg", "distribution": "uniform", "seed": null, "dtype": "float32"}}, "bias_initializer": {"class_name": "Zeros", "config": {"dtype": "float32"}}, "kernel_regularizer": null, "bias_regularizer": null, "activity_regularizer": null, "kernel_constraint": null, "bias_constraint": null}, "inbound_nodes": [[["conv4_block19_0_relu", 0, 0, {}]]]}, {"name": "conv4_block19_1_bn", "class_name": "BatchNormalization", "config": {"name": "conv4_block19_1_bn", "trainable": true, "dtype": "float32", "axis": [3], "momentum": 0.99, "epsilon": 1.001e-05, "center": true, "scale": true, "beta_initializer": {"class_name": "Zeros", "config": {"dtype": "float32"}}, "gamma_initializer": {"class_name": "Ones", "config": {"dtype": "float32"}}, "moving_mean_initializer": {"class_name": "Zeros", "config": {"dtype": "float32"}}, "moving_variance_initializer": {"class_name": "Ones", "config": {"dtype": "float32"}}, "beta_regularizer": null, "gamma_regularizer": null, "beta_constraint": null, "gamma_constraint": null}, "inbound_nodes": [[["conv4_block19_1_conv", 0, 0, {}]]]}, {"name": "conv4_block19_1_relu", "class_name": "Activation", "config": {"name": "conv4_block19_1_relu", "trainable": true, "dtype": "float32", "activation": "relu"}, "inbound_nodes": [[["conv4_block19_1_bn", 0, 0, {}]]]}, {"name": "conv4_block19_2_conv", "class_name": "Conv2D", "config": {"name": "conv4_block19_2_conv", "trainable": true, "dtype": "float32", "filters": 32, "kernel_size": [3, 3], "strides": [1, 1], "padding": "same", "data_format": "channels_last", "dilation_rate": [1, 1], "activation": "linear", "use_bias": false, "kernel_initializer": {"class_name": "VarianceScaling", "config": {"scale": 1.0, "mode": "fan_avg", "distribution": "uniform", "seed": null, "dtype": "float32"}}, "bias_initializer": {"class_name": "Zeros", "config": {"dtype": "float32"}}, "kernel_regularizer": null, "bias_regularizer": null, "activity_regularizer": null, "kernel_constraint": null, "bias_constraint": null}, "inbound_nodes": [[["conv4_block19_1_relu", 0, 0, {}]]]}, {"name": "conv4_block19_concat", "class_name": "Concatenate", "config": {"name": "conv4_block19_concat", "trainable": true, "dtype": "float32", "axis": 3}, "inbound_nodes": [[["conv4_block18_concat", 0, 0, {}], ["conv4_block19_2_conv", 0, 0, {}]]]}, {"name": "conv4_block20_0_bn", "class_name": "BatchNormalization", "config": {"name": "conv4_block20_0_bn", "trainable": true, "dtype": "float32", "axis": [3], "momentum": 0.99, "epsilon": 1.001e-05, "center": true, "scale": true, "beta_initializer": {"class_name": "Zeros", "config": {"dtype": "float32"}}, "gamma_initializer": {"class_name": "Ones", "config": {"dtype": "float32"}}, "moving_mean_initializer": {"class_name": "Zeros", "config": {"dtype": "float32"}}, "moving_variance_initializer": {"class_name": "Ones", "config": {"dtype": "float32"}}, "beta_regularizer": null, "gamma_regularizer": null, "beta_constraint": null, "gamma_constraint": null}, "inbound_nodes": [[["conv4_block19_concat", 0, 0, {}]]]}, {"name": "conv4_block20_0_relu", "class_name": "Activation", "config": {"name": "conv4_block20_0_relu", "trainable": true, "dtype": "float32", "activation": "relu"}, "inbound_nodes": [[["conv4_block20_0_bn", 0, 0, {}]]]}, {"name": "conv4_block20_1_conv", "class_name": "Conv2D", "config": {"name": "conv4_block20_1_conv", "trainable": true, "dtype": "float32", "filters": 128, "kernel_size": [1, 1], "strides": [1, 1], "padding": "valid", "data_format": "channels_last", "dilation_rate": [1, 1], "activation": "linear", "use_bias": false, "kernel_initializer": {"class_name": "VarianceScaling", "config": {"scale": 1.0, "mode": "fan_avg", "distribution": "uniform", "seed": null, "dtype": "float32"}}, "bias_initializer": {"class_name": "Zeros", "config": {"dtype": "float32"}}, "kernel_regularizer": null, "bias_regularizer": null, "activity_regularizer": null, "kernel_constraint": null, "bias_constraint": null}, "inbound_nodes": [[["conv4_block20_0_relu", 0, 0, {}]]]}, {"name": "conv4_block20_1_bn", "class_name": "BatchNormalization", "config": {"name": "conv4_block20_1_bn", "trainable": true, "dtype": "float32", "axis": [3], "momentum": 0.99, "epsilon": 1.001e-05, "center": true, "scale": true, "beta_initializer": {"class_name": "Zeros", "config": {"dtype": "float32"}}, "gamma_initializer": {"class_name": "Ones", "config": {"dtype": "float32"}}, "moving_mean_initializer": {"class_name": "Zeros", "config": {"dtype": "float32"}}, "moving_variance_initializer": {"class_name": "Ones", "config": {"dtype": "float32"}}, "beta_regularizer": null, "gamma_regularizer": null, "beta_constraint": null, "gamma_constraint": null}, "inbound_nodes": [[["conv4_block20_1_conv", 0, 0, {}]]]}, {"name": "conv4_block20_1_relu", "class_name": "Activation", "config": {"name": "conv4_block20_1_relu", "trainable": true, "dtype": "float32", "activation": "relu"}, "inbound_nodes": [[["conv4_block20_1_bn", 0, 0, {}]]]}, {"name": "conv4_block20_2_conv", "class_name": "Conv2D", "config": {"name": "conv4_block20_2_conv", "trainable": true, "dtype": "float32", "filters": 32, "kernel_size": [3, 3], "strides": [1, 1], "padding": "same", "data_format": "channels_last", "dilation_rate": [1, 1], "activation": "linear", "use_bias": false, "kernel_initializer": {"class_name": "VarianceScaling", "config": {"scale": 1.0, "mode": "fan_avg", "distribution": "uniform", "seed": null, "dtype": "float32"}}, "bias_initializer": {"class_name": "Zeros", "config": {"dtype": "float32"}}, "kernel_regularizer": null, "bias_regularizer": null, "activity_regularizer": null, "kernel_constraint": null, "bias_constraint": null}, "inbound_nodes": [[["conv4_block20_1_relu", 0, 0, {}]]]}, {"name": "conv4_block20_concat", "class_name": "Concatenate", "config": {"name": "conv4_block20_concat", "trainable": true, "dtype": "float32", "axis": 3}, "inbound_nodes": [[["conv4_block19_concat", 0, 0, {}], ["conv4_block20_2_conv", 0, 0, {}]]]}, {"name": "conv4_block21_0_bn", "class_name": "BatchNormalization", "config": {"name": "conv4_block21_0_bn", "trainable": true, "dtype": "float32", "axis": [3], "momentum": 0.99, "epsilon": 1.001e-05, "center": true, "scale": true, "beta_initializer": {"class_name": "Zeros", "config": {"dtype": "float32"}}, "gamma_initializer": {"class_name": "Ones", "config": {"dtype": "float32"}}, "moving_mean_initializer": {"class_name": "Zeros", "config": {"dtype": "float32"}}, "moving_variance_initializer": {"class_name": "Ones", "config": {"dtype": "float32"}}, "beta_regularizer": null, "gamma_regularizer": null, "beta_constraint": null, "gamma_constraint": null}, "inbound_nodes": [[["conv4_block20_concat", 0, 0, {}]]]}, {"name": "conv4_block21_0_relu", "class_name": "Activation", "config": {"name": "conv4_block21_0_relu", "trainable": true, "dtype": "float32", "activation": "relu"}, "inbound_nodes": [[["conv4_block21_0_bn", 0, 0, {}]]]}, {"name": "conv4_block21_1_conv", "class_name": "Conv2D", "config": {"name": "conv4_block21_1_conv", "trainable": true, "dtype": "float32", "filters": 128, "kernel_size": [1, 1], "strides": [1, 1], "padding": "valid", "data_format": "channels_last", "dilation_rate": [1, 1], "activation": "linear", "use_bias": false, "kernel_initializer": {"class_name": "VarianceScaling", "config": {"scale": 1.0, "mode": "fan_avg", "distribution": "uniform", "seed": null, "dtype": "float32"}}, "bias_initializer": {"class_name": "Zeros", "config": {"dtype": "float32"}}, "kernel_regularizer": null, "bias_regularizer": null, "activity_regularizer": null, "kernel_constraint": null, "bias_constraint": null}, "inbound_nodes": [[["conv4_block21_0_relu", 0, 0, {}]]]}, {"name": "conv4_block21_1_bn", "class_name": "BatchNormalization", "config": {"name": "conv4_block21_1_bn", "trainable": true, "dtype": "float32", "axis": [3], "momentum": 0.99, "epsilon": 1.001e-05, "center": true, "scale": true, "beta_initializer": {"class_name": "Zeros", "config": {"dtype": "float32"}}, "gamma_initializer": {"class_name": "Ones", "config": {"dtype": "float32"}}, "moving_mean_initializer": {"class_name": "Zeros", "config": {"dtype": "float32"}}, "moving_variance_initializer": {"class_name": "Ones", "config": {"dtype": "float32"}}, "beta_regularizer": null, "gamma_regularizer": null, "beta_constraint": null, "gamma_constraint": null}, "inbound_nodes": [[["conv4_block21_1_conv", 0, 0, {}]]]}, {"name": "conv4_block21_1_relu", "class_name": "Activation", "config": {"name": "conv4_block21_1_relu", "trainable": true, "dtype": "float32", "activation": "relu"}, "inbound_nodes": [[["conv4_block21_1_bn", 0, 0, {}]]]}, {"name": "conv4_block21_2_conv", "class_name": "Conv2D", "config": {"name": "conv4_block21_2_conv", "trainable": true, "dtype": "float32", "filters": 32, "kernel_size": [3, 3], "strides": [1, 1], "padding": "same", "data_format": "channels_last", "dilation_rate": [1, 1], "activation": "linear", "use_bias": false, "kernel_initializer": {"class_name": "VarianceScaling", "config": {"scale": 1.0, "mode": "fan_avg", "distribution": "uniform", "seed": null, "dtype": "float32"}}, "bias_initializer": {"class_name": "Zeros", "config": {"dtype": "float32"}}, "kernel_regularizer": null, "bias_regularizer": null, "activity_regularizer": null, "kernel_constraint": null, "bias_constraint": null}, "inbound_nodes": [[["conv4_block21_1_relu", 0, 0, {}]]]}, {"name": "conv4_block21_concat", "class_name": "Concatenate", "config": {"name": "conv4_block21_concat", "trainable": true, "dtype": "float32", "axis": 3}, "inbound_nodes": [[["conv4_block20_concat", 0, 0, {}], ["conv4_block21_2_conv", 0, 0, {}]]]}, {"name": "conv4_block22_0_bn", "class_name": "BatchNormalization", "config": {"name": "conv4_block22_0_bn", "trainable": true, "dtype": "float32", "axis": [3], "momentum": 0.99, "epsilon": 1.001e-05, "center": true, "scale": true, "beta_initializer": {"class_name": "Zeros", "config": {"dtype": "float32"}}, "gamma_initializer": {"class_name": "Ones", "config": {"dtype": "float32"}}, "moving_mean_initializer": {"class_name": "Zeros", "config": {"dtype": "float32"}}, "moving_variance_initializer": {"class_name": "Ones", "config": {"dtype": "float32"}}, "beta_regularizer": null, "gamma_regularizer": null, "beta_constraint": null, "gamma_constraint": null}, "inbound_nodes": [[["conv4_block21_concat", 0, 0, {}]]]}, {"name": "conv4_block22_0_relu", "class_name": "Activation", "config": {"name": "conv4_block22_0_relu", "trainable": true, "dtype": "float32", "activation": "relu"}, "inbound_nodes": [[["conv4_block22_0_bn", 0, 0, {}]]]}, {"name": "conv4_block22_1_conv", "class_name": "Conv2D", "config": {"name": "conv4_block22_1_conv", "trainable": true, "dtype": "float32", "filters": 128, "kernel_size": [1, 1], "strides": [1, 1], "padding": "valid", "data_format": "channels_last", "dilation_rate": [1, 1], "activation": "linear", "use_bias": false, "kernel_initializer": {"class_name": "VarianceScaling", "config": {"scale": 1.0, "mode": "fan_avg", "distribution": "uniform", "seed": null, "dtype": "float32"}}, "bias_initializer": {"class_name": "Zeros", "config": {"dtype": "float32"}}, "kernel_regularizer": null, "bias_regularizer": null, "activity_regularizer": null, "kernel_constraint": null, "bias_constraint": null}, "inbound_nodes": [[["conv4_block22_0_relu", 0, 0, {}]]]}, {"name": "conv4_block22_1_bn", "class_name": "BatchNormalization", "config": {"name": "conv4_block22_1_bn", "trainable": true, "dtype": "float32", "axis": [3], "momentum": 0.99, "epsilon": 1.001e-05, "center": true, "scale": true, "beta_initializer": {"class_name": "Zeros", "config": {"dtype": "float32"}}, "gamma_initializer": {"class_name": "Ones", "config": {"dtype": "float32"}}, "moving_mean_initializer": {"class_name": "Zeros", "config": {"dtype": "float32"}}, "moving_variance_initializer": {"class_name": "Ones", "config": {"dtype": "float32"}}, "beta_regularizer": null, "gamma_regularizer": null, "beta_constraint": null, "gamma_constraint": null}, "inbound_nodes": [[["conv4_block22_1_conv", 0, 0, …
e": "conv3_block12_1_bn/moving_variance", "shape": [128], "dtype": "float32"}]}, {"paths": ["group37-shard1of1"], "weights": [{"name": "conv3_block12_1_conv/kernel", "shape": [1, 1, 480, 128], "dtype": "float32"}]}, {"paths": ["group38-shard1of1"], "weights": [{"name": "conv3_block12_2_conv/kernel", "shape": [3, 3, 128, 32], "dtype": "float32"}]}, {"paths": ["group39-shard1of1"], "weights": [{"name": "conv3_block1_0_bn/gamma", "shape": [128], "dtype": "float32"}, {"name": "conv3_block1_0_bn/beta", "shape": [128], "dtype": "float32"}, {"name": "conv3_block1_0_bn/moving_mean", "shape": [128], "dtype": "float32"}, {"name": "conv3_block1_0_bn/moving_variance", "shape": [128], "dtype": "float32"}]}, {"paths": ["group40-shard1of1"], "weights": [{"name": "conv3_block1_1_bn/gamma", "shape": [128], "dtype": "float32"}, {"name": "conv3_block1_1_bn/beta", "shape": [128], "dtype": "float32"}, {"name": "conv3_block1_1_bn/moving_mean", "shape": [128], "dtype": "float32"}, {"name": "conv3_block1_1_bn/moving_variance", "shape": [128], "dtype": "float32"}]}, {"paths": ["group41-shard1of1"], "weights": [{"name": "conv3_block1_1_conv/kernel", "shape": [1, 1, 128, 128], "dtype": "float32"}]}, {"paths": ["group42-shard1of1"], "weights": [{"name": "conv3_block1_2_conv/kernel", "shape": [3, 3, 128, 32], "dtype": "float32"}]}, {"paths": ["group43-shard1of1"], "weights": [{"name": "conv3_block2_0_bn/gamma", "shape": [160], "dtype": "float32"}, {"name": "conv3_block2_0_bn/beta", "shape": [160], "dtype": "float32"}, {"name": "conv3_block2_0_bn/moving_mean", "shape": [160], "dtype": "float32"}, {"name": "conv3_block2_0_bn/moving_variance", "shape": [160], "dtype": "float32"}]}, {"paths": ["group44-shard1of1"], "weights": [{"name": "conv3_block2_1_bn/gamma", "shape": [128], "dtype": "float32"}, {"name": "conv3_block2_1_bn/beta", "shape": [128], "dtype": "float32"}, {"name": "conv3_block2_1_bn/moving_mean", "shape": [128], "dtype": "float32"}, {"name": "conv3_block2_1_bn/moving_variance", "shape": [128], "dtype": "float32"}]}, {"paths": ["group45-shard1of1"], "weights": [{"name": "conv3_block2_1_conv/kernel", "shape": [1, 1, 160, 128], "dtype": "float32"}]}, {"paths": ["group46-shard1of1"], "weights": [{"name": "conv3_block2_2_conv/kernel", "shape": [3, 3, 128, 32], "dtype": "float32"}]}, {"paths": ["group47-shard1of1"], "weights": [{"name": "conv3_block3_0_bn/gamma", "shape": [192], "dtype": "float32"}, {"name": "conv3_block3_0_bn/beta", "shape": [192], "dtype": "float32"}, {"name": "conv3_block3_0_bn/moving_mean", "shape": [192], "dtype": "float32"}, {"name": "conv3_block3_0_bn/moving_variance", "shape": [192], "dtype": "float32"}]}, {"paths": ["group48-shard1of1"], "weights": [{"name": "conv3_block3_1_bn/gamma", "shape": [128], "dtype": "float32"}, {"name": "conv3_block3_1_bn/beta", "shape": [128], "dtype": "float32"}, {"name": "conv3_block3_1_bn/moving_mean", "shape": [128], "dtype": "float32"}, {"name": "conv3_block3_1_bn/moving_variance", "shape": [128], "dtype": "float32"}]}, {"paths": ["group49-shard1of1"], "weights": [{"name": "conv3_block3_1_conv/kernel", "shape": [1, 1, 192, 128], "dtype": "float32"}]}, {"paths": ["group50-shard1of1"], "weights": [{"name": "conv3_block3_2_conv/kernel", "shape": [3, 3, 128, 32], "dtype": "float32"}]}, {"paths": ["group51-shard1of1"], "weights": [{"name": "conv3_block4_0_bn/gamma", "shape": [224], "dtype": "float32"}, {"name": "conv3_block4_0_bn/beta", "shape": [224], "dtype": "float32"}, {"name": "conv3_block4_0_bn/moving_mean", "shape": [224], "dtype": "float32"}, {"name": "conv3_block4_0_bn/moving_variance", "shape": [224], "dtype": "float32"}]}, {"paths": ["group52-shard1of1"], "weights": [{"name": "conv3_block4_1_bn/gamma", "shape": [128], "dtype": "float32"}, {"name": "conv3_block4_1_bn/beta", "shape": [128], "dtype": "float32"}, {"name": "conv3_block4_1_bn/moving_mean", "shape": [128], "dtype": "float32"}, {"name": "conv3_block4_1_bn/moving_variance", "shape": [128], "dtype": "float32"}]}, {"paths": ["group53-shard1of1"], "weights": [{"name": "conv3_block4_1_conv/kernel", "shape": [1, 1, 224, 128], "dtype": "float32"}]}, {"paths": ["group54-shard1of1"], "weights": [{"name": "conv3_block4_2_conv/kernel", "shape": [3, 3, 128, 32], "dtype": "float32"}]}, {"paths": ["group55-shard1of1"], "weights": [{"name": "conv3_block5_0_bn/gamma", "shape": [256], "dtype": "float32"}, {"name": "conv3_block5_0_bn/beta", "shape": [256], "dtype": "float32"}, {"name": "conv3_block5_0_bn/moving_mean", "shape": [256], "dtype": "float32"}, {"name": "conv3_block5_0_bn/moving_variance", "shape": [256], "dtype": "float32"}]}, {"paths": ["group56-shard1of1"], "weights": [{"name": "conv3_block5_1_bn/gamma", "shape": [128], "dtype": "float32"}, {"name": "conv3_block5_1_bn/beta", "shape": [128], "dtype": "float32"}, {"name": "conv3_block5_1_bn/moving_mean", "shape": [128], "dtype": "float32"}, {"name": "conv3_block5_1_bn/moving_variance", "shape": [128], "dtype": "float32"}]}, {"paths": ["group57-shard1of1"], "weights": [{"name": "conv3_block5_1_conv/kernel", "shape": [1, 1, 256, 128], "dtype": "float32"}]}, {"paths": ["group58-shard1of1"], "weights": [{"name": "conv3_block5_2_conv/kernel", "shape": [3, 3, 128, 32], "dtype": "float32"}]}, {"paths": ["group59-shard1of1"], "weights": [{"name": "conv3_block6_0_bn/gamma", "shape": [288], "dtype": "float32"}, {"name": "conv3_block6_0_bn/beta", "shape": [288], "dtype": "float32"}, {"name": "conv3_block6_0_bn/moving_mean", "shape": [288], "dtype": "float32"}, {"name": "conv3_block6_0_bn/moving_variance", "shape": [288], "dtype": "float32"}]}, {"paths": ["group60-shard1of1"], "weights": [{"name": "conv3_block6_1_bn/gamma", "shape": [128], "dtype": "float32"}, {"name": "conv3_block6_1_bn/beta", "shape": [128], "dtype": "float32"}, {"name": "conv3_block6_1_bn/moving_mean", "shape": [128], "dtype": "float32"}, {"name": "conv3_block6_1_bn/moving_variance", "shape": [128], "dtype": "float32"}]}, {"paths": ["group61-shard1of1"], "weights": [{"name": "conv3_block6_1_conv/kernel", "shape": [1, 1, 288, 128], "dtype": "float32"}]}, {"paths": ["group62-shard1of1"], "weights": [{"name": "conv3_block6_2_conv/kernel", "shape": [3, 3, 128, 32], "dtype": "float32"}]}, {"paths": ["group63-shard1of1"], "weights": [{"name": "conv3_block7_0_bn/gamma", "shape": [320], "dtype": "float32"}, {"name": "conv3_block7_0_bn/beta", "shape": [320], "dtype": "float32"}, {"name": "conv3_block7_0_bn/moving_mean", "shape": [320], "dtype": "float32"}, {"name": "conv3_block7_0_bn/moving_variance", "shape": [320], "dtype": "float32"}]}, {"paths": ["group64-shard1of1"], "weights": [{"name": "conv3_block7_1_bn/gamma", "shape": [128], "dtype": "float32"}, {"name": "conv3_block7_1_bn/beta", "shape": [128], "dtype": "float32"}, {"name": "conv3_block7_1_bn/moving_mean", "shape": [128], "dtype": "float32"}, {"name": "conv3_block7_1_bn/moving_variance", "shape": [128], "dtype": "float32"}]}, {"paths": ["group65-shard1of1"], "weights": [{"name": "conv3_block7_1_conv/kernel", "shape": [1, 1, 320, 128], "dtype": "float32"}]}, {"paths": ["group66-shard1of1"], "weights": [{"name": "conv3_block7_2_conv/kernel", "shape": [3, 3, 128, 32], "dtype": "float32"}]}, {"paths": ["group67-shard1of1"], "weights": [{"name": "conv3_block8_0_bn/gamma", "shape": [352], "dtype": "float32"}, {"name": "conv3_block8_0_bn/beta", "shape": [352], "dtype": "float32"}, {"name": "conv3_block8_0_bn/moving_mean", "shape": [352], "dtype": "float32"}, {"name": "conv3_block8_0_bn/moving_variance", "shape": [352], "dtype": "float32"}]}, {"paths": ["group68-shard1of1"], "weights": [{"name": "conv3_block8_1_bn/gamma", "shape": [128], "dtype": "float32"}, {"name": "conv3_block8_1_bn/beta", "shape": [128], "dtype": "float32"}, {"name": "conv3_block8_1_bn/moving_mean", "shape": [128], "dtype": "float32"}, {"name": "conv3_block8_1_bn/moving_variance", "shape": [128], "dtype": "float32"}]}, {"paths": ["group69-shard1of1"], "weights": [{"name": "conv3_block8_1_conv/kernel", "shape": [1, 1, 352, 128], "dtype": "float32"}]}, {"paths": ["group70-shard1of1"], "weights": [{"name": "conv3_block8_2_conv/kernel", "shape": [3, 3, 128, 32], "dtype": "float32"}]}, {"paths": ["group71-shard1of1"], "weights": [{"name": "conv3_block9_0_bn/gamma", "shape": [384], "dtype": "float32"}, {"name": "conv3_block9_0_bn/beta", "shape": [384], "dtype": "float32"}, {"name": "conv3_block9_0_bn/moving_mean", "shape": [384], "dtype": "float32"}, {"name": "conv3_block9_0_bn/moving_variance", "shape": [384], "dtype": "float32"}]}, {"paths": ["group72-shard1of1"], "weights": [{"name": "conv3_block9_1_bn/gamma", "shape": [128], "dtype": "float32"}, {"name": "conv3_block9_1_bn/beta", "shape": [128], "dtype": "float32"}, {"name": "conv3_block9_1_bn/moving_mean", "shape": [128], "dtype": "float32"}, {"name": "conv3_block9_1_bn/moving_variance", "shape": [128], "dtype": "float32"}]}, {"paths": ["group73-shard1of1"], "weights": [{"name": "conv3_block9_1_conv/kernel", "shape": [1, 1, 384, 128], "dtype": "float32"}]}, {"paths": ["group74-shard1of1"], "weights": [{"name": "conv3_block9_2_conv/kernel", "shape": [3, 3, 128, 32], "dtype": "float32"}]}, {"paths": ["group75-shard1of1"], "weights": [{"name": "conv4_block10_0_bn/gamma", "shape": [544], "dtype": "float32"}, {"name": "conv4_block10_0_bn/beta", "shape": [544], "dtype": "float32"}, {"name": "conv4_block10_0_bn/moving_mean", "shape": [544], "dtype": "float32"}, {"name": "conv4_block10_0_bn/moving_variance", "shape": [544], "dtype": "float32"}]}, {"paths": ["group76-shard1of1"], "weights": [{"name": "conv4_block10_1_bn/gamma", "shape": [128], "dtype": "float32"}, {"name": "conv4_block10_1_bn/beta", "shape": [128], "dtype": "float32"}, {"name": "conv4_block10_1_bn/moving_mean", "shape": [128], "dtype": "float32"}, {"name": "conv4_block10_1_bn/moving_variance", "shape": [128], "dtype": "float32"}]}, {"paths": ["group77-shard1of1"], "weights": [{"name": "conv4_block10_1_conv/kernel", "shape": [1, 1, 544, 128], "dtype": "float32"}]}, {"paths": ["group78-shard1of1"], "weights": [{"name": "conv4_block10_2_conv/kernel", "shape": [3, 3, 128, 32], "dtype": "float32"}]}, {"paths": ["group79-shard1of1"], "weights": [{"name": "conv4_block11_0_bn/gamma", "shape": [576], "dtype": "float32"}, {"name": "conv4_block11_0_bn/beta", "shape": [576], "dtype": "float32"}, {"name": "conv4_block11_0_bn/moving_mean", "shape": [576], "dtype": "float32"}, {"name": "conv4_block11_0_bn/moving_variance", "shape": [576], "dtype": "float32"}]}, {"paths": ["group80-shard1of1"], "weights": [{"name": "conv4_block11_1_bn/gamma", "shape": [128], "dtype": "float32"}, {"name": "conv4_block11_1_bn/beta", "shape": [128], "dtype": "float32"}, {"name": "conv4_block11_1_bn/moving_mean", "shape": [128], "dtype": "float32"}, {"name": "conv4_block11_1_bn/moving_variance", "shape": [128], "dtype": "float32"}]}, {"paths": ["group81-shard1of1"], "weights": [{"name": "conv4_block11_1_conv/kernel", "shape": [1, 1, 576, 128], "dtype": "float32"}]}, {"paths": ["group82-shard1of1"], "weights": [{"name": "conv4_block11_2_conv/kernel", "shape": [3, 3, 128, 32], "dtype": "float32"}]}, {"paths": ["group83-shard1of1"], "weights": [{"name": "conv4_block12_0_bn/gamma", "shape": [608], "dtype": "float32"}, {"name": "conv4_block12_0_bn/beta", "shape": [608], "dtype": "float32"}, {"name": "conv4_block12_0_bn/moving_mean", "shape": [608], "dtype": "float32"}, {"name": "conv4_block12_0_bn/moving_variance", "shape": [608], "dtype": "float32"}]}, {"paths": ["group84-shard1of1"], "weights": [{"name": "conv4_block12_1_bn/gamma", "shape": [128], "dtype": "float32"}, {"name": "conv4_block12_1_bn/beta", "shape": [128], "dtype": "float32"}, {"name": "conv4_block12_1_bn/moving_mean", "shape": [128], "dtype": "float32"}, {"name": "conv4_block12_1_bn/moving_variance", "shape": [128], "dtype": "float32"}]}, {"paths": ["group85-shard1of1"], "weights": [{"name": "conv4_block12_1_conv/kernel", "shape": [1, 1, 608, 128], "dtype": "float32"}]}, {"paths": ["group86-shard1of1"], "weights": [{"name": "conv4_block12_2_conv/kernel", "shape": [3, 3, 128, 32], "dtype": "float32"}]}, {"paths": ["group87-shard1of1"], "weights": [{"name": "conv4_block13_0_bn/gamma", "shape": [640], "dtype": "float32"}, {"name": "conv4_block13_0_bn/beta", "shape": [640], "dtype": "float32"}, {"name": "conv4_block13_0_bn/moving_mean", "shape": [640], "dtype": "float32"}, {"name": "conv4_block13_0_bn/moving_variance", "shape": [640], "dtype": "float32"}]}, {"paths": ["group88-shard1of1"], "weights": [{"name": "conv4_block13_1_bn/gamma", "shape": [128], "dtype": "float32"}, {"name": "conv4_block13_1_bn/beta", "shape": [128], "dtype": "float32"}, {"name": "conv4_block13_1_bn/moving_mean", "shape": [128], "dtype": "float32"}, {"name": "conv4_block13_1_bn/moving_variance", "shape": [128], "dtype": "float32"}]}, {"paths": ["group89-shard1of1"], "weights": [{"name": "conv4_block13_1_conv/kernel", "shape": [1, 1, 640, 128], "dtype": "float32"}]}, {"paths": ["group90-shard1of1"], "weights": [{"name": "conv4_block13_2_conv/kernel", "shape": [3, 3, 128, 32], "dtype": "float32"}]}, {"paths": ["group91-shard1of1"], "weights": [{"name": "conv4_block14_0_bn/gamma", "shape": [672], "dtype": "float32"}, {"name": "conv4_block14_0_bn/beta", "shape": [672], "dtype": "float32"}, {"name": "conv4_block14_0_bn/moving_mean", "shape": [672], "dtype": "float32"}, {"name": "conv4_block14_0_bn/moving_variance", "shape": [672], "dtype": "float32"}]}, {"paths": ["group92-shard1of1"], "weights": [{"name": "conv4_block14_1_bn/gamma", "shape": [128], "dtype": "float32"}, {"name": "conv4_block14_1_bn/beta", "shape": [128], "dtype": "float32"}, {"name": "conv4_block14_1_bn/moving_mean", "shape": [128], "dtype": "float32"}, {"name": "conv4_block14_1_bn/moving_variance", "shape": [128], "dtype": "float32"}]}, {"paths": ["group93-shard1of1"], "weights": [{"name": "conv4_block14_1_conv/kernel", "shape": [1, 1, 672, 128], "dtype": "float32"}]}, {"paths": ["group94-shard1of1"], "weights": [{"name": "conv4_block14_2_conv/kernel", "shape": [3, 3, 128, 32], "dtype": "float32"}]}, {"paths": ["group95-shard1of1"], "weights": [{"name": "conv4_block15_0_bn/gamma", "shape": [704], "dtype": "float32"}, {"name": "conv4_block15_0_bn/beta", "shape": [704], "dtype": "float32"}, {"name": "conv4_block15_0_bn/moving_mean", "shape": [704], "dtype": "float32"}, {"name": "conv4_block15_0_bn/moving_variance", "shape": [704], "dtype": "float32"}]}, {"paths": ["group96-shard1of1"], "weights": [{"name": "conv4_block15_1_bn/gamma", "shape": [128], "dtype": "float32"}, {"name": "conv4_block15_1_bn/beta", "shape": [128], "dtype": "float32"}, {"name": "conv4_block15_1_bn/moving_mean", "shape": [128], "dtype": "float32"}, {"name": "conv4_block15_1_bn/moving_variance", "shape": [128], "dtype": "float32"}]}, {"paths": ["group97-shard1of1"], "weights": [{"name": "conv4_block15_1_conv/kernel", "shape": [1, 1, 704, 128], "dtype": "float32"}]}, {"paths": ["group98-shard1of1"], "weights": [{"name": "conv4_block15_2_conv/kernel", "shape": [3, 3, 128, 32], "dtype": "float32"}]}, {"paths": ["group99-shard1of1"], "weights": [{"name": "conv4_block16_0_bn/gamma", "shape": [736], "dtype": "float32"}, {"name": "conv4_block16_0_bn/beta", "shape": [736], "dtype": "float32"}, {"name": "conv4_block16_0_bn/moving_mean", "shape": [736], "dtype": "float32"}, {"name": "conv4_block16_0_bn/moving_variance", "shape": [736], "dtype": "float32"}]}, {"paths": ["group100-shard1of1"], "weights": [{"name": "conv4_block16_1_bn/gamma", "shape": [128], "dtype": "float32"}, {"name": "conv4_block16_1_bn/beta", "shape": [128], "dtype": "float32"}, {"name": "conv4_block16_1_bn/moving_mean", "shape": [128], "dtype": "float32"}, {"name": "conv4_block16_1_bn/moving_variance", "shape": [128], "dtype": "float32"}]}, {"paths": ["group101-shard1of1"], "weights": [{"name": "conv4_block16_1_conv/kernel", "shape": [1, 1, 736, 128], "dtype": "float32"}]}, {"paths": ["group102-shard1of1"], "weights": [{"name": "conv4_block16_2_conv/kernel", "shape": [3, 3, 128, 32], "dtype": "float32"}]}, {"paths": ["group103-shard1of1"], "weights": [{"name": "conv4_block17_0_bn/gamma", "shape": [768], "dtype": "float32"}, {"name": "conv4_block17_0_bn/beta", "shape": [768], "dtype": "float32"}, {"name": "conv4_block17_0_bn/moving_mean", "shape": [768], "dtype": "float32"}, {"name": "conv4_block17_0_bn/moving_variance", "shape": [768], "dtype": "float32"}]}, {"paths": ["group104-shard1of1"], "weights": [{"name": "conv4_block17_1_bn/gamma", "shape": [128], "dtype": "float32"}, {"name": "conv4_block17_1_bn/beta", "shape": [128], "dtype": "float32"}, {"name": "conv4_block17_1_bn/moving_mean", "shape": [128], "dtype": "float32"}, {"name": "conv4_block17_1_bn/moving_variance", "shape": [128], "dtype": "float32"}]}, {"paths": ["group105-shard1of1"], "weights": [{"name": "conv4_block17_1_conv/kernel", "shape": [1, 1, 768, 128], "dtype": "float32"}]}, {"paths": ["group106-shard1of1"], "weights": [{"name": "conv4_block17_2_conv/kernel", "shape": [3, 3, 128, 32], "dtype": "float32"}]}, {"paths": ["group107-shard1of1"], "weights": [{"name": "conv4_block18_0_bn/gamma", "shape": [800], "dtype": "float32"}, {"name": "conv4_block18_0_bn/beta", "shape": [800], "dtype": "float32"}, {"name": "conv4_block18_0_bn/moving_mean", "shape": [800], "dtype": "float32"}, {"name": "conv4_block18_0_bn/moving_variance", "shape": [800], "dtype": "float32"}]}, {"paths": ["group108-shard1of1"], "weights": [{"name": "conv4_block18_1_bn/gamma", "shape": [128], "dtype": "float32"}, {"name": "conv4_block18_1_bn/beta", "shape": [128], "dtype": "float32"}, {"name": "conv4_block18_1_bn/moving_mean", "shape": [128], "dtype": "float32"}, {"name": "conv4_block18_1_bn/moving_variance", "shape": [128], "dtype": "float32"}]}, {"paths": ["group109-shard1of1"], "weights": [{"name": "conv4_block18_1_conv/kernel", "shape": [1, 1, 800, 128], "dtype": "float32"}]}, {"paths": ["group110-shard1of1"], "weights": [{"name": "conv4_block18_2_conv/kernel", "shape": [3, 3, 128, 32], "dtype": "float32"}]}, {"paths": ["group111-shard1of1"], "weights": [{"name": "conv4_block19_0_bn/gamma", "shape": [832], "dtype": "float32"}, {"name": "conv4_block19_0_bn/beta", "shape": [832], "dtype": "float32"}, {"name": "conv4_block19_0_bn/moving_mean", "shape": [832], "dtype": "float32"}, {"name": "conv4_block19_0_bn/moving_variance", "shape": [832], "dtype": "float32"}]}, {"paths": ["group112-shard1of1"], "weights": [{"name": "conv4_block19_1_bn/gamma", "shape": [128], "dtype": "float32"}, {"name": "conv4_block19_1_bn/beta", "shape": [128], "dtype": "float32"}, {"name": "conv4_block19_1_bn/moving_mean", "shape": [128], "dtype": "float32"}, {"name": "conv4_block19_1_bn/moving_variance", "shape": [128], "dtype": "float32"}]}, {"paths": ["group113-shard1of1"], "weights": [{"name": "conv4_block19_1_conv/kernel", "shape": [1, 1, 832, 128], "dtype": "float32"}]}, {"paths": ["group114-shard1of1"], "weights": [{"name": "conv4_block19_2_conv/kernel", "shape": [3, 3, 128, 32], "dtype": "float32"}]}, {"paths": ["group115-shard1of1"], "weights": [{"name": "conv4_block1_0_bn/gamma", "shape": [256], "dtype": "float32"}, {"name": "conv4_block1_0_bn/beta", "shape": [256], "dtype": "float32"}, {"name": "conv4_block1_0_bn/moving_mean", "shape": [256], "dtype": "float32"}, {"name": "conv4_block1_0_bn/moving_variance", "shape": [256], "dtype": "float32"}]}, {"paths": ["group116-shard1of1"], "weights": [{"name": "conv4_block1_1_bn/gamma", "shape": [128], "dtype": "float32"}, {"name": "conv4_block1_1_bn/beta", "shape": [128], "dtype": "float32"}, {"name": "conv4_block1_1_bn/moving_mean", "shape": [128], "dtype": "float32"}, {"name": "conv4_block1_1_bn/moving_variance", "shape": [128], "dtype": "float32"}]}, {"paths": ["group117-shard1of1"], "weights": [{"name": "conv4_block1_1_conv/kernel", "shape": [1, 1, 256, 128], "dtype": "float32"}]}, {"paths": ["group118-shard1of1"], "weights": [{"name": "conv4_block1_2_conv/kernel", "shape": [3, 3, 128, 32], "dtype": "float32"}]}, {"paths": ["group119-shard1of1"], "weights": [{"name": "conv4_block20_0_bn/gamma", "shape": [864], "dtype": "float32"}, {"name": "conv4_block20_0_bn/beta", "shape": [864], "dtype": "float32"}, {"name": "conv4_block20_0_bn/moving_mean", "shape": [864], "dtype": "float32"}, {"name": "conv4_block20_0_bn/moving_variance", "shape": [864], "dtype": "float32"}]}, {"paths": ["group120-shard1of1"], "weights": [{"name": "conv4_block20_1_bn/gamma", "shape": [128], "dtype": "float32"}, {"name": "conv4_block20_1_bn/beta", "shape": [128], "dtype": "float32"}, {"name": "conv4_block20_1_bn/moving_mean", "shape": [128], "dtype": "float32"}, {"name": "conv4_block20_1_bn/moving_variance", "shape": [128], "dtype": "float32"}]}, {"paths": ["group121-shard1of1"], "weights": [{"name": "conv4_block20_1_conv/kernel", "shape": [1, 1, 864, 128], "dtype": "float32"}]}, {"paths": ["group122-shard1of1"], "weights": [{"name": "conv4_block20_2_conv/kernel", "shape": [3, 3, 128, 32], "dtype": "float32"}]}, {"paths": ["group123-shard1of1"], "weights": [{"name": "conv4_block21_0_bn/gamma", "shape": [896], "dtype": "float32"}, {"name": "conv4_block21_0_bn/beta", "shape": [896], "dtype": "float32"}, {"name": "conv4_block21_0_bn/moving_mean", "shape": [896], "dtype": "float32"}, {"name": "conv4_block21_0_bn/moving_variance", "shape": [896], "dtype": "float32"}]}, {"paths": ["group124-shard1of1"], "weights": [{"name": "conv4_block21_1_bn/gamma", "shape": [128], "dtype": "float32"}, {"name": "conv4_block21_1_bn/beta", "shape": [128], "dtype": "float32"}, {"name": "conv4_block21_1_bn/moving_mean", "shape": [128], "dtype": "float32"}, {"name": "conv4_block21_1_bn/moving_variance", "shape": [128], "dtype": "float32"}]}, {"paths": ["group125-shard1of1"], "weights": [{"name": "conv4_block21_1_conv/kernel", "shape": [1, 1, 896, 128], "dtype": "float32"}]}, {"paths": ["group126-shard1of1"], "weights": [{"name": "conv4_block21_2_conv/kernel", "shape": [3, 3, 128, 32], "dtype": "float32"}]}, {"paths": ["group127-shard1of1"], "weights": [{"name": "conv4_block22_0_bn/gamma", "shape": [928], "dtype": "float32"}, {"name": "conv4_block22_0_bn/beta", "shape": [928], "dtype": "float32"}, {"name": "conv4_block22_0_bn/moving_mean", "shape": [928], "dtype": "float32"}, {"name": "conv4_block22_0_bn/moving_variance", "shape": [928], "dtype": "float32"}]}, {"paths": ["group128-shard1of1"], "weights": [{"name": "conv4_block22_1_bn/gamma", "shape": [128], "dtype": "float32"}, {"name": "conv4_block22_1_bn/beta", "shape": [128], "dtype": "float32"}, {"name": "conv4_block22_1_bn/moving_mean", "shape": [128], "dtype": "float32"}, {"name": "conv4_block22_1_bn/moving_variance", "shape": [128], "dtype": "float32"}]}, {"paths": ["group129-shard1of1"], "weights": [{"name": "conv4_block22_1_conv/kernel", "shape": [1, 1, 928, 128], "dtype": "float32"}]}, {"paths": ["group130-shard1of1"], "weights": [{"name": "conv4_block22_2_conv/kernel", "shape": [3, 3, 128, 32], "dtype": "float32"}]}, {"paths": ["group131-shard1of1"], "weights": [{"name": "conv4_block23_0_bn/gamma", "shape": [960], "dtype": "float32"}, {"name": "conv4_block23_0_bn/beta", "shape": [960], "dtype": "float32"}, {"name": "conv4_block23_0_bn/moving_mean", "shape": [960], "dtype": "float32"}, {"name": "conv4_block23_0_bn/moving_variance", "shape": [960], "dtype": "float32"}]}, {"paths": ["group132-shard1of1"], "weights": [{"name": "conv4_block23_1_bn/gamma", "shape": [128], "dtype": "float32"}, {"name": "conv4_block23_1_bn/beta", "shape": [128], "dtype": "float32"}, {"name": "conv4_block23_1_bn/moving_mean", "shape": [128], "dtype": "float32"}, {"name": "conv4_block23_1_bn/moving_variance", "shape": [128], "dtype": "float32"}]}, {"paths": ["group133-shard1of1"], "weights": [{"name": "conv4_block23_1_conv/kernel", "shape": [1, 1, 960, 128], "dtype": "float32"}]}, {"paths": ["group134-shard1of1"], "weights": [{"name": "conv4_block23_2_conv/kernel", "shape": [3, 3, 128, 32], "dtype": "float32"}]}, {"paths": ["group135-shard1of1"], "weights": [{"name": "conv4_block24_0_bn/gamma", "shape": [992], "dtype": "float32"}, {"name": "conv4_block24_0_bn/beta", "shape": [992], "dtype": "float32"}, {"name": "conv4_block24_0_bn/moving_mean", "shape": [992], "dtype": "float32"}, {"name": "conv4_block24_0_bn/moving_variance", "shape": [992], "dtype": "float32"}]}, {"paths": ["group136-shard1of1"], "weights": [{"name": "conv4_block24_1_bn/gamma", "shape": [128], "dtype": "float32"}, {"name": "conv4_block24_1_bn/beta", "shape": [128], "dtype": "float32"}, {"name": "conv4_block24_1_bn/moving_mean", "shape": [128], "dtype": "float32"}, {"name": "conv4_block24_1_bn/moving_variance", "shape": [128], "dtype": "float32"}]}, {"paths": ["group137-shard1of1"], "weights": [{"name": "conv4_block24_1_conv/kernel", "shape": [1, 1, 992, 128], "dtype": "float32"}]}, {"paths": ["group138-shard1of1"], "weights": [{"name": "conv4_block24_2_conv/kernel", "shape": [3, 3, 128, 32], "dtype": "float32"}]}, {"paths": ["group139-shard1of1"], "weights": [{"name": "conv4_block2_0_bn/gamma", "shape": [288], "dtype": "float32"}, {"name": "conv4_block2_0_bn/beta", "shape": [288], "dtype": "float32"}, {"name": "conv4_block2_0_bn/moving_mean", "shape": [288], "dtype": "float32"}, {"name": "conv4_block2_0_bn/moving_variance", "shape": [288], "dtype": "float32"}]}, {"paths": ["group140-shard1of1"], "weights": [{"name": "conv4_block2_1_bn/gamma", "shape": [128], "dtype": "float32"}, {"name": "conv4_block2_1_bn/beta", "shape": [128], "dtype": "float32"}, {"name": "conv4_block2_1_bn/moving_mean", "shape": [128], "dtype": "float32"}, {"name": "conv4_block2_1_bn/moving_variance", "shape": [128], "dtype": "float32"}]}, {"paths": ["group141-shard1of1"], "weights": [{"name": "conv4_block2_1_conv/kernel", "shape": [1, 1, 288, 128], "dtype": "float32"}]}, {"paths": ["group142-shard1of1"], "weights": [{"name": "conv4_block2_2_conv/kernel", "shape": [3, 3, 128, 32], "dtype": "float32"}]}, {"paths": ["group143-shard1of1"], "weights": [{"name": "conv4_block3_0_bn/gamma", "shape": [320], "dtype": "float32"}, {"name": "conv4_block3_0_bn/beta", "shape": [320], "dtype": "float32"}, {"name": "conv4_block3_0_bn/moving_mean", "shape": [320], "dtype": "float32"}, {"name": "conv4_block3_0_bn/moving_variance", "shape": [320], "dtype": "float32"}]}, {"paths": ["group144-shard1of1"], "weights": [{"name": "conv4_block3_1_bn/gamma", "shape": [128], "dtype": "float32"}, {"name": "conv4_block3_1_bn/beta", "shape": [128], "dtype": "float32"}, {"name": "conv4_block3_1_bn/moving_mean", "shape": [128], "dtype": "float32"}, {"name": "conv4_block3_1_bn/moving_variance", "shape": [128], "dtype": "float32"}]}, {"paths": ["group145-shard1of1"], "weights": [{"name": "conv4_block3_1_conv/kernel", "shape": [1, 1, 320, 128], "dtype": "float32"}]}, {"paths": ["group146-shard1of1"], "weights": [{"name": "conv4_block3_2_conv/kernel", "shape": [3, 3, 128, 32], "dtype": "float32"}]}, {"paths": ["group147-shard1of1"], "weights": [{"name": "conv4_block4_0_bn/gamma", "shape": [352], "dtype": "float32"}, {"name": "conv4_block4_0_bn/beta", "shape": [352], "dtype": "float32"}, {"name": "conv4_block4_0_bn/moving_mean", "shape": [352], "dtype": "float32"}, {"name": "conv4_block4_0_bn/moving_variance", "shape": [352], "dtype": "float32"}]}, {"paths": ["group148-shard1of1"], "weights": [{"name": "conv4_block4_1_bn/gamma", "shape": [128], "dtype": "float32"}, {"name": "conv4_block4_1_bn/beta", "shape": [128], "dtype": "float32"}, {"name": "conv4_block4_1_bn/moving_mean", "shape": [128], "dtype": "float32"}, {"name": "conv4_block4_1_bn/moving_variance", "shape": [128], "dtype": "float32"}]}, {"paths": ["group149-shard1of1"], "weights": [{"name": "conv4_block4_1_conv/kernel", "shape": [1, 1, 352, 128], "dtype": "float32"}]}, {"paths": ["group150-shard1of1"], "weights": [{"name": "conv4_block4_2_conv/kernel", "shape": [3, 3, 128, 32], "dtype": "float32"}]}, {"paths": ["group151-shard1of1"], "weights": [{"name": "conv4_block5_0_bn/gamma", "shape": [384], "dtype": "float32"}, {"name": "conv4_block5_0_bn/beta", "shape": [384], "dtype": "float32"}, {"name": "conv4_block5_0_bn/moving_mean", "shape": [384], "dtype": "float32"}, {"name": "conv4_block5_0_bn/moving_variance", "shape": [384], "dtype": "float32"}]}, {"paths": ["group152-shard1of1"], "weights": [{"name": "conv4_block5_1_bn/gamma", "shape": [128], "dtype": "float32"}, {"name": "conv4_block5_1_bn/beta", "shape": [128], "dtype": "float32"}, {"name": "conv4_block5_1_bn/moving_mean", "shape": [128], "dtype": "float32"}, {"name": "conv4_block5_1_bn/moving_variance", "shape": [128], "dtype": "float32"}]}, {"paths": ["group153-shard1of1"], "weights": [{"name": "conv4_block5_1_conv/kernel", "shape": [1, 1, 384, 128], "dtype": "float32"}]}, {"paths": ["group154-shard1of1"], "weights": [{"name": "conv4_block5_2_conv/kernel", "shape": [3, 3, 128, 32], "dtype": "float32"}]}, {"paths": ["group155-shard1of1"], "weights": [{"name": "conv4_block6_0_bn/gamma", "shape": [416], "dtype": "float32"}, {"name": "conv4_block6_0_bn/beta", "shape": [416], "dtype": "float32"}, {"name": "conv4_block6_0_bn/moving_mean", "shape": [416], "dtype": "float32"}, {"name": "conv4_block6_0_bn/moving_variance", "shape": [416], "dtype": "float32"}]}, {"paths": ["group156-shard1of1"], "weights": [{"name": "conv4_block6_1_bn/gamma", "shape": [128], "dtype": "float32"}, {"name": "conv4_block6_1_bn/beta", "shape": [128], "dtype": "float32"}, {"name": "conv4_block6_1_bn/moving_mean", "shape": [128], "dtype": "float32"}, {"name": "conv4_block6_1_bn/moving_variance", "shape": [128], "dtype": "float32"}]}, {"paths": ["group157-shard1of1"], "weights": [{"name": "conv4_block6_1_conv/kernel", "shape": [1, 1, 416, 128], "dtype": "float32"}]}, {"paths": ["group158-shard1of1"], "weights": [{"name": "conv4_block6_2_conv/kernel", "shape": [3, 3, 128, 32], "dtype": "float32"}]}, {"paths": ["group159-shard1of1"], "weights": [{"name": "conv4_block7_0_bn/gamma", "shape": [448], "dtype": "float32"}, {"name": "conv4_block7_0_bn/beta", "shape": [448], "dtype": "float32"}, {"name": "conv4_block7_0_bn/moving_mean", "shape": [448], "dtype": "float32"}, {"name": "conv4_block7_0_bn/moving_variance", "shape": [448], "dtype": "float32"}]}, {"paths": ["group160-shard1of1"], "weights": [{"name": "conv4_block7_1_bn/gamma", "shape": [128], "dtype": "float32"}, {"name": "conv4_block7_1_bn/beta", "shape": [128], "dtype": "float32"}, {"name": "conv4_block7_1_bn/moving_mean", "shape": [128], "dtype": "float32"}, {"name": "conv4_block7_1_bn/moving_variance", "shape": [128], "dtype": "float32"}]}, {"paths": ["group161-shard1of1"], "weights": [{"name": "conv4_block7_1_conv/kernel", "shape": [1, 1, 448, 128], "dtype": "float32"}]}, {"paths": ["group162-shard1of1"], "weights": [{"name": "conv4_block7_2_conv/kernel", "shape": [3, 3, 128, 32], "dtype": "float32"}]}, {"paths": ["group163-shard1of1"], "weights": [{"name": "conv4_block8_0_bn/gamma", "shape": [480], "dtype": "float32"}, {"name": "conv4_block8_0_bn/beta", "shape": [480], "dtype": "float32"}, {"name": "conv4_block8_0_bn/moving_mean", "shape": [480], "dtype": "float32"}, {"name": "conv4_block8_0_bn/moving_variance", "shape": [480], "dtype": "float32"}]}, {"paths": ["group164-shard1of1"], "weights": [{"name": "conv4_block8_1_bn/gamma", "shape": [128], "dtype": "float32"}, {"name": "conv4_block8_1_bn/beta", "shape": [128], "dtype": "float32"}, {"name": "conv4_block8_1_bn/moving_mean", "shape": [128], "dtype": "float32"}, {"name": "conv4_block8_1_bn/moving_variance", "shape": [128], "dtype": "float32"}]}, {"paths": ["group165-shard1of1"], "weights": [{"name": "conv4_block8_1_conv/kernel", "shape": [1, 1, 480, 128], "dtype": "float32"}]}, {"paths": ["group166-shard1of1"], "weights": [{"name": "conv4_block8_2_conv/kernel", "shape": [3, 3, 128, 32], "dtype": "float32"}]}, {"paths": ["group167-shard1of1"], "weights": [{"name": "conv4_block9_0_bn/gamma", "shape": [512], "dtype": "float32"}, {"name": "conv4_block9_0_bn/beta", "shape": [512], "dtype": "float32"}, {"name": "conv4_block9_0_bn/moving_mean", "shape": [512], "dtype": "float32"}, {"name": "conv4_block9_0_bn/moving_variance", "shape": [512], "dtype": "float32"}]}, {"paths": ["group168-shard1of1"], "weights": [{"name": "conv4_block9_1_bn/gamma", "shape": [128], "dtype": "float32"}, {"name": "conv4_block9_1_bn/beta", "shape": [128], "dtype": "float32"}, {"name": "conv4_block9_1_bn/moving_mean", "shape": [128], "dtype": "float32"}, {"name": "conv4_block9_1_bn/moving_variance", "shape": [128], "dtype": "float32"}]}, {"paths": ["group169-shard1of1"], "weights": [{"name": "conv4_block9_1_conv/kernel", "shape": [1, 1, 512, 128], "dtype": "float32"}]}, {"paths": ["group170-shard1of1"], "weights": [{"name": "conv4_block9_2_conv/kernel", "shape": [3, 3, 128, 32], "dtype": "float32"}]}, {"paths": ["group171-shard1of1"], "weights": [{"name": "conv5_block10_0_bn/gamma", "shape": [800], "dtype": "float32"}, {"name": "conv5_block10_0_bn/beta", "shape": [800], "dtype": "float32"}, {"name": "conv5_block10_0_bn/moving_mean", "shape": [800], "dtype": "float32"}, {"name": "conv5_block10_0_bn/moving_variance", "shape": [800], "dtype": "float32"}]}, {"paths": ["group172-shard1of1"], "weights": [{"name": "conv5_block10_1_bn/gamma", "shape": [128], "dtype": "float32"}, {"name": "conv5_block10_1_bn/beta", "shape": [128], "dtype": "float32"}, {"name": "conv5_block10_1_bn/moving_mean", "shape": [128], "dtype": "float32"}, {"name": "conv5_block10_1_bn/moving_variance", "shape": [128], "dtype": "float32"}]}, {"paths": ["group173-shard1of1"], "weights": [{"name": "conv5_block10_1_conv/kernel", "shape": [1, 1, 800, 128], "dtype": "float32"}]}, {"paths": ["group174-shard1of1"], "weights": [{"name": "conv5_block10_2_conv/kernel", "shape": [3, 3, 128, 32], "dtype": "float32"}]}, {"paths": ["group175-shard1of1"], "weights": [{"name": "conv5_block11_0_bn/gamma", "shape": [832], "dtype": "float32"}, {"name": "conv5_block11_0_bn/beta", "shape": [832], "dtype": "float32"}, {"name": "conv5_block11_0_bn/moving_mean", "shape": [832], "dtype": "float32"}, {"name": "conv5_block11_0_bn/moving_variance", "shape": [832], "dtype": "float32"}]}, {"paths": ["group176-shard1of1"], "weights": [{"name": "conv5_block11_1_bn/gamma", "shape": [128], "dtype": "float32"}, {"name": "conv5_block11_1_bn/beta", "shape": [128], "dtype": "float32"}, {"name": "conv5_block11_1_bn/moving_mean", "shape": [128], "dtype": "float32"}, {"name": "conv5_block11_1_bn/moving_variance", "shape": [128], "dtype": "float32"}]}, {"paths": ["group177-shard1of1"], "weights": [{"name": "conv5_block11_1_conv/kernel", "shape": [1, 1, 832, 128], "dtype": "float32"}]}, {"paths": ["group178-shard1of1"], "weights": [{"name": "conv5_block11_2_conv/kernel", "shape": [3, 3, 128, 32], "dtype": "float32"}]}, {"paths": ["group179-shard1of1"], "weights": [{"name": "conv5_block12_0_bn/gamma", "shape": [864], "dtype": "float32"}, {"name": "conv5_block12_0_bn/beta", "shape": [864], "dtype": "float32"}, {"name": "conv5_block12_0_bn/moving_mean", "shape": [864], "dtype": "float32"}, {"name": "conv5_block12_0_bn/moving_variance", "shape": [864], "dtype": "float32"}]}, {"paths": ["group180-shard1of1"], "weights": [{"name": "conv5_block12_1_bn/gamma", "shape": [128], "dtype": "float32"}, {"name": "conv5_block12_1_bn/beta", "shape": [128], "dtype": "float32"}, {"name": "conv5_block12_1_bn/moving_mean", "shape": [128], "dtype": "float32"}, {"name": "conv5_block12_1_bn/moving_variance", "shape": [128], "dtype": "float32"}]}, {"paths": ["group181-shard1of1"], "weights": [{"name": "conv5_block12_1_conv/kernel", "shape": [1, 1, 864, 128], "dtype": "float32"}]}, {"paths": ["group182-shard1of1"], "weights": [{"name": "conv5_block12_2_conv/kernel", "shape": [3, 3, 128, 32], "dtype": "float32"}]}, {"paths": ["group183-shard1of1"], "weights": [{"name": "conv5_block13_0_bn/gamma", "shape": [896], "dtype": "float32"}, {"name": "conv5_block13_0_bn/beta", "shape": [896], "dtype": "float32"}, {"name": "conv5_block13_0_bn/moving_mean", "shape": [896], "dtype": "float32"}, {"name": "conv5_block13_0_bn/moving_variance", "shape": [896], "dtype": "float32"}]}, {"paths": ["group184-shard1of1"], "weights": [{"name": "conv5_block13_1_bn/gamma", "shape": [128], "dtype": "float32"}, {"name": "conv5_block13_1_bn/beta", "shape": [128], "dtype": "float32"}, {"name": "conv5_block13_1_bn/moving_mean", "shape": [128], "dtype": "float32"}, {"name": "conv5_block13_1_bn/moving_variance", "shape": [128], "dtype": "float32"}]}, {"paths": ["group185-shard1of1"], "weights": [{"name": "conv5_block13_1_conv/kernel", "shape": [1, 1, 896, 128], "dtype": "float32"}]}, {"paths": ["group186-shard1of1"], "weights": [{"name": "conv5_block13_2_conv/kernel", "shape": [3, 3, 128, 32], "dtype": "float32"}]}, {"paths": ["group187-shard1of1"], "weights": [{"name": "conv5_block14_0_bn/gamma", "shape": [928], "dtype": "float32"}, {"name": "conv5_block14_0_bn/beta", "shape": [928], "dtype": "float32"}, {"name": "conv5_block14_0_bn/moving_mean", "shape": [928], "dtype": "float32"}, {"name": "conv5_block14_0_bn/moving_variance", "shape": [928], "dtype": "float32"}]}, {"paths": ["group188-shard1of1"], "weights": [{"name": "conv5_block14_1_bn/gamma", "shape": [128], "dtype": "float32"}, {"name": "conv5_block14_1_bn/beta", "shape": [128], "dtype": "float32"}, {"name": "conv5_block14_1_bn/moving_mean", "shape": [128], "dtype": "float32"}, {"name": "conv5_block14_1_bn/moving_variance", "shape": [128], "dtype": "float32"}]}, {"paths": ["group189-shard1of1"], "weights": [{"name": "conv5_block14_1_conv/kernel", "shape": [1, 1, 928, 128], "dtype": "float32"}]}, {"paths": ["group190-shard1of1"], "weights": [{"name": "conv5_block14_2_conv/kernel", "shape": [3, 3, 128, 32], "dtype": "float32"}]}, {"paths": ["group191-shard1of1"], "weights": [{"name": "conv5_block15_0_bn/gamma", "shape": [960], "dtype": "float32"}, {"name": "conv5_block15_0_bn/beta", "shape": [960], "dtype": "float32"}, {"name": "conv5_block15_0_bn/moving_mean", "shape": [960], "dtype": "float32"}, {"name": "conv5_block15_0_bn/moving_variance", "shape": [960], "dtype": "float32"}]}, {"paths": ["group192-shard1of1"], "weights": [{"name": "conv5_block15_1_bn/gamma", "shape": [128], "dtype": "float32"}, {"name": "conv5_block15_1_bn/beta", "shape": [128], "dtype": "float32"}, {"name": "conv5_block15_1_bn/moving_mean", "shape": [128], "dtype": "float32"}, {"name": "conv5_block15_1_bn/moving_variance", "shape": [128], "dtype": "float32"}]}, {"paths": ["group193-shard1of1"], "weights": [{"name": "conv5_block15_1_conv/kernel", "shape": [1, 1, 960, 128], "dtype": "float32"}]}, {"paths": ["group194-shard1of1"], "weights": [{"name": "conv5_block15_2_conv/kernel", "shape": [3, 3, 128, 32], "dtype": "float32"}]}, {"paths": ["group195-shard1of1"], "weights": [{"name": "conv5_block16_0_bn/gamma", "shape": [992], "dtype": "float32"}, {"name": "conv5_block16_0_bn/beta", "shape": [992], "dtype": "float32"}, {"name": "conv5_block16_0_bn/moving_mean", "shape": [992], "dtype": "float32"}, {"name": "conv5_block16_0_bn/moving_variance", "shape": [992], "dtype": "float32"}]}, {"paths": ["group196-shard1of1"], "weights": [{"name": "conv5_block16_1_bn/gamma", "shape": [128], "dtype": "float32"}, {"name": "conv5_block16_1_bn/beta", "shape": [128], "dtype": "float32"}, {"name": "conv5_block16_1_bn/moving_mean", "shape": [128], "dtype": "float32"}, {"name": "conv5_block16_1_bn/moving_variance", "shape": [128], "dtype": "float32"}]}, {"paths": ["group197-shard1of1"], "weights": [{"name": "conv5_block16_1_conv/kernel", "shape": [1, 1, 992, 128], "dtype": "float32"}]}, {"paths": ["group198-shard1of1"], "weights": [{"name": "conv5_block16_2_conv/kernel", "shape": [3, 3, 128, 32], "dtype": "float32"}]}, {"paths": ["group199-shard1of1"], "weights": [{"name": "conv5_block1_0_bn/gamma", "shape": [512], "dtype": "float32"}, {"name": "conv5_block1_0_bn/beta", "shape": [512], "dtype": "float32"}, {"name": "conv5_block1_0_bn/moving_mean", "shape": [512], "dtype": "float32"}, {"name": "conv5_block1_0_bn/moving_variance", "shape": [512], "dtype": "float32"}]}, {"paths": ["group200-shard1of1"], "weights": [{"name": "conv5_block1_1_bn/gamma", "shape": [128], "dtype": "float32"}, {"name": "conv5_block1_1_bn/beta", "shape": [128], "dtype": "float32"}, {"name": "conv5_block1_1_bn/moving_mean", "shape": [128], "dtype": "float32"}, {"name": "conv5_block1_1_bn/moving_variance", "shape": [128], "dtype": "float32"}]}, {"paths": ["group201-shard1of1"], "weights": [{"name": "conv5_block1_1_conv/kernel", "shape": [1, 1, 512, 128], "dtype": "float32"}]}, {"paths": ["group202-shard1of1"], "weights": [{"name": "conv5_block1_2_conv/kernel", "shape": [3, 3, 128, 32], "dtype": "float32"}]}, {"paths": ["group203-shard1of1"], "weights": [{"name": "conv5_block2_0_bn/gamma", "shape": [544], "dtype": "float32"}, {"name": "conv5_block2_0_bn/beta", "shape": [544], "dtype": "float32"}, {"name": "conv5_block2_0_bn/moving_mean", "shape": [544], "dtype": "float32"}, {"name": "conv5_block2_0_bn/moving_variance", "shape": [544], "dtype": "float32"}]}, {"paths": ["group204-shard1of1"], "weights": [{"name": "conv5_block2_1_bn/gamma", "shape": [128], "dtype": "float32"}, {"name": "conv5_block2_1_bn/beta", "shape": [128], "dtype": "float32"}, {"name": "conv5_block2_1_bn/moving_mean", "shape": [128], "dtype": "float32"}, {"name": "conv5_block2_1_bn/moving_variance", "shape": [128], "dtype": "float32"}]}, {"paths": ["group205-shard1of1"], "weights": [{"name": "conv5_block2_1_conv/kernel", "shape": [1, 1, 544, 128], "dtype": "float32"}]}, {"paths": ["group206-shard1of1"], "weights": [{"name": "conv5_block2_2_conv/kernel", "shape": [3, 3, 128, 32], "dtype": "float32"}]}, {"paths": ["group207-shard1of1"], "weights": [{"name": "conv5_block3_0_bn/gamma", "shape": [576], "dtype": "float32"}, {"name": "conv5_block3_0_bn/beta", "shape": [576], "dtype": "float32"}, {"name": "conv5_block3_0_bn/moving_mean", "shape": [576], "dtype": "float32"}, {"name": "conv5_block3_0_bn/moving_variance", "shape": [576], "dtype": "float32"}]}, {"paths": ["group208-shard1of1"], "weights": [{"name": "conv5_block3_1_bn/gamma", "shape": [128], "dtype": "float32"}, {"name": "conv5_block3_1_bn/beta", "shape": [128], "dtype": "float32"}, {"name": "conv5_block3_1_bn/moving_mean", "shape": [128], "dtype": "float32"}, {"name": "conv5_block3_1_bn/moving_variance", "shape": [128], "dtype": "float32"}]}, {"paths": ["group209-shard1of1"], "weights": [{"name": "conv5_block3_1_conv/kernel", "shape": [1, 1, 576, 128], "dtype": "float32"}]}, {"paths": ["group210-shard1of1"], "weights": [{"name": "conv5_block3_2_conv/kernel", "shape": [3, 3, 128, 32], "dtype": "float32"}]}, {"paths": ["group211-shard1of1"], "weights": [{"name": "conv5_block4_0_bn/gamma", "shape": [608], "dtype": "float32"}, {"name": "conv5_block4_0_bn/beta", "shape": [608], "dtype": "float32"}, {"name": "conv5_block4_0_bn/moving_mean", "shape": [608], "dtype": "float32"}, {"name": "conv5_block4_0_bn/moving_variance", "shape": [608], "dtype": "float32"}]}, {"paths": ["group212-shard1of1"], "weights": [{"name": "conv5_block4_1_bn/gamma", "shape": [128], "dtype": "float32"}, {"name": "conv5_block4_1_bn/beta", "shape": [128], "dtype": "float32"}, {"name": "conv5_block4_1_bn/moving_mean", "shape": [128], "dtype": "float32"}, {"name": "conv5_block4_1_bn/moving_variance", "shape": [128], "dtype": "float32"}]}, {"paths": ["group213-shard1of1"], "weights": [{"name": "conv5_block4_1_conv/kernel", "shape": [1, 1, 608, 128], "dtype": "float32"}]}, {"paths": ["group214-shard1of1"], "weights": [{"name": "conv5_block4_2_conv/kernel", "shape": [3, 3, 128, 32], "dtype": "float32"}]}, {"paths": ["group215-shard1of1"], "weights": [{"name": "conv5_block5_0_bn/gamma", "shape": [640], "dtype": "float32"}, {"name": "conv5_block5_0_bn/beta", "shape": [640], "dtype": "float32"}, {"name": "conv5_block5_0_bn/moving_mean", "shape": [640], "dtype": "float32"}, {"name": "conv5_block5_0_bn/moving_variance", "shape": [640], "dtype": "float32"}]}, {"paths": ["group216-shard1of1"], "weights": [{"name": "conv5_block5_1_bn/gamma", "shape": [128], "dtype": "float32"}, {"name": "conv5_block5_1_bn/beta", "shape": [128], "dtype": "float32"}, {"name": "conv5_block5_1_bn/moving_mean", "shape": [128], "dtype": "float32"}, {"name": "conv5_block5_1_bn/moving_variance", "shape": [128], "dtype": "float32"}]}, {"paths": ["group217-shard1of1"], "weights": [{"name": "conv5_block5_1_conv/kernel", "shape": [1, 1, 640, 128], "dtype": "float32"}]}, {"paths": ["group218-shard1of1"], "weights": [{"name": "conv5_block5_2_conv/kernel", "shape": [3, 3, 128, 32], "dtype": "float32"}]}, {"paths": ["group219-shard1of1"], "weights": [{"name": "conv5_block6_0_bn/gamma", "shape": [672], "dtype": "float32"}, {"name": "conv5_block6_0_bn/beta", "shape": [672], "dtype": "float32"}, {"name": "conv5_block6_0_bn/moving_mean", "shape": [672], "dtype": "float32"}, {"name": "conv5_block6_0_bn/moving_variance", "shape": [672], "dtype": "float32"}]}, {"paths": ["group220-shard1of1"], "weights": [{"name": "conv5_block6_1_bn/gamma", "shape": [128], "dtype": "float32"}, {"name": "conv5_block6_1_bn/beta", "shape": [128], "dtype": "float32"}, {"name": "conv5_block6_1_bn/moving_mean", "shape": [128], "dtype": "float32"}, {"name": "conv5_block6_1_bn/moving_variance", "shape": [128], "dtype": "float32"}]}, {"paths": ["group221-shard1of1"], "weights": [{"name": "conv5_block6_1_conv/kernel", "shape": [1, 1, 672, 128], "dtype": "float32"}]}, {"paths": ["group222-shard1of1"], "weights": [{"name": "conv5_block6_2_conv/kernel", "shape": [3, 3, 128, 32], "dtype": "float32"}]}, {"paths": ["group223-shard1of1"], "weights": [{"name": "conv5_block7_0_bn/gamma", "shape": [704], "dtype": "float32"}, {"name": "conv5_block7_0_bn/beta", "shape": [704], "dtype": "float32"}, {"name": "conv5_block7_0_bn/moving_mean", "shape": [704], "dtype": "float32"}, {"name": "conv5_block7_0_bn/moving_variance", "shape": [704], "dtype": "float32"}]}, {"paths": ["group224-shard1of1"], "weights": [{"name": "conv5_block7_1_bn/gamma", "shape": [128], "dtype": "float32"}, {"name": "conv5_block7_1_bn/beta", "shape": [128], "dtype": "float32"}, {"name": "conv5_block7_1_bn/moving_mean", "shape": [128], "dtype": "float32"}, {"name": "conv5_block7_1_bn/moving_variance", "shape": [128], "dtype": "float32"}]}, {"paths": ["group225-shard1of1"], "weights": [{"name": "conv5_block7_1_conv/kernel", "shape": [1, 1, 704, 128], "dtype": "float32"}]}, {"paths": ["group226-shard1of1"], "weights": [{"name": "conv5_block7_2_conv/kernel", "shape": [3, 3, 128, 32], "dtype": "float32"}]}, {"paths": ["group227-shard1of1"], "weights": [{"name": "conv5_block8_0_bn/gamma", "shape": [736], "dtype": "float32"}, {"name": "conv5_block8_0_bn/beta", "shape": [736], "dtype": "float32"}, {"name": "conv5_block8_0_bn/moving_mean", "shape": [736], "dtype": "float32"}, {"name": "conv5_block8_0_bn/moving_variance", "shape": [736], "dtype": "float32"}]}, {"paths": ["group228-shard1of1"], "weights": [{"name": "conv5_block8_1_bn/gamma", "shape": [128], "dtype": "float32"}, {"name": "conv5_block8_1_bn/beta", "shape": [128], "dtype": "float32"}, {"name": "conv5_block8_1_bn/moving_mean", "shape": [128], "dtype": "float32"}, {"name": "conv5_block8_1_bn/moving_variance", "shape": [128], "dtype": "float32"}]}, {"paths": ["group229-shard1of1"], "weights": [{"name": "conv5_block8_1_conv/kernel", "shape": [1, 1, 736, 128], "dtype": "float32"}]}, {"paths": ["group230-shard1of1"], "weights": [{"name": "conv5_block8_2_conv/kernel", "shape": [3, 3, 128, 32], "dtype": "float32"}]}, {"paths": ["group231-shard1of1"], "weights": [{"name": "conv5_block9_0_bn/gamma", "shape": [768], "dtype": "float32"}, {"name": "conv5_block9_0_bn/beta", "shape": [768], "dtype": "float32"}, {"name": "conv5_block9_0_bn/moving_mean", "shape": [768], "dtype": "float32"}, {"name": "conv5_block9_0_bn/moving_variance", "shape": [768], "dtype": "float32"}]}, {"paths": ["group232-shard1of1"], "weights": [{"name": "conv5_block9_1_bn/gamma", "shape": [128], "dtype": "float32"}, {"name": "conv5_block9_1_bn/beta", "shape": [128], "dtype": "float32"}, {"name": "conv5_block9_1_bn/moving_mean", "shape": [128], "dtype": "float32"}, {"name": "conv5_block9_1_bn/moving_variance", "shape": [128], "dtype": "float32"}]}, {"paths": ["group233-shard1of1"], "weights": [{"name": "conv5_block9_1_conv/kernel", "shape": [1, 1, 768, 128], "dtype": "float32"}]}, {"paths": ["group234-shard1of1"], "weights": [{"name": "conv5_block9_2_conv/kernel", "shape": [3, 3, 128, 32], "dtype": "float32"}]}, {"paths": ["group235-shard1of1"], "weights": [{"name": "fc1000/kernel", "shape": [1024, 1000], "dtype": "float32"}, {"name": "fc1000/bias", "shape": [1000], "dtype": "float32"}]}, {"paths": ["group236-shard1of1"], "weights": [{"name": "pool2_bn/gamma", "shape": [256], "dtype": "float32"}, {"name": "pool2_bn/beta", "shape": [256], "dtype": "float32"}, {"name": "pool2_bn/moving_mean", "shape": [256], "dtype": "float32"}, {"name": "pool2_bn/moving_variance", "shape": [256], "dtype": "float32"}]}, {"paths": ["group237-shard1of1"], "weights": [{"name": "pool2_conv/kernel", "shape": [1, 1, 256, 128], "dtype": "float32"}]}, {"paths": ["group238-shard1of1"], "weights": [{"name": "pool3_bn/gamma", "shape": [512], "dtype": "float32"}, {"name": "pool3_bn/beta", "shape": [512], "dtype": "float32"}, {"name": "pool3_bn/moving_mean", "shape": [512], "dtype": "float32"}, {"name": "pool3_bn/moving_variance", "shape": [512], "dtype": "float32"}]}, {"paths": ["group239-shard1of1"], "weights": [{"name": "pool3_conv/kernel", "shape": [1, 1, 512, 256], "dtype": "float32"}]}, {"paths": ["group240-shard1of1"], "weights": [{"name": "pool4_bn/gamma", "shape": [1024], "dtype": "float32"}, {"name": "pool4_bn/beta", "shape": [1024], "dtype": "float32"}, {"name": "pool4_bn/moving_mean", "shape": [1024], "dtype": "float32"}, {"name": "pool4_bn/moving_variance", "shape": [1024], "dtype": "float32"}]}, {"paths": ["group241-shard1of1"], "weights": [{"name": "pool4_conv/kernel", "shape": [1, 1, 1024, 512], "dtype": "float32"}]}]}